middle/MyApplication2/app/src/main/assets/keras_model.tflite (tflite, 409060 bytes, 4 tensors)

sequential/dense/BiasAdd/ReadVariableOp f4 [128]
-0.010307722 0.11430186 0.057485066 0.0285674 0.018405052 0.046744164 -0.015486324 0.04291854
-0.014171187 0.13007681 0.07356903 0.047589865 0.0350703 -0.049907047 -0.041692086 -0.008950721
-0.100964 0.068463065 -0.04658 -0.06514632 -0.0074075516 -0.030508129 -0.0007157627 -0.036094982
0.04358465 -0.09895003 0.03230035 0.09030722 0.040400084 -0.032425616 -0.17385289 -0.05897256
-0.07815056 -0.16058773 0.24275433 -0.1052988 0.05722486 0.15931872 -0.041901432 0.16270147
-0.082186356 -0.0048239306 0.185671 0.13708398 0.09149925 -0.06265652 -0.0105177 0.08815027
-0.008563138 0.09412536 -0.00013992729 -0.029638654 0.04009691 -0.03203391 0.055447634 0.03684889
0.13506949 0.0009921791 -0.041352402 0.11666821 0.044730708 0.08745678 0.0060500135 0.17453384
-0.023816152 0.0867503 -0.07832024 0.06753556 0.014368581 0.017813977 0.025647067 -0.084942505
0.0056361784 -0.039345164 0.02157339 0.076781355 -0.030486396 0.010826138 0.0033831422 0.038344447
0.12007826 -0.0016477667 0.067587405 0.0022944221 0.043247156 -0.01195003 0.028299104 0.15426709
0.070727095 0.1481 0.0697989 -0.14338236 -0.060465034 0.11235866 0.09207898 -0.14352448
-0.030318644 0.15743169 0.014165553 0.008086933 -0.03678225 0.02506963 -0.097181164 0.0046473774
0.13492204 -0.082710914 -0.011897598 0.23459972 0.13730887 0.17482808 0.04928254 0.16010454
-0.016033856 -0.04393908 0.16064245 0.09998161 0.037875567 0.14865533 0.05836558 0.10614527
0.014215772 0.07829841 -0.030278802 -0.06974683 0.07098093 -0.027718153 -0.032309715 0.041221783
00000000: b8e1 28bc 1817 ea3d 7675 6b3d 2e06 ea3c
00000010: 31c6 963c cf76 3f3d 5aba 7dbc 5acb 2f3d
00000020: 442e 68bc db32 053e 5cab 963d 97ed 423d
00000030: e0a5 0f3d 556b 4cbd 52c5 2abd 0ba6 12bc
00000040: 37c6 cebd 5d36 8c3d acca 3ebd 6f6b 85bd
00000050: 0cbb f2bb 2fec f9bc 06a2 3bba 55d8 13bd
00000060: d185 323d 50a6 cabd 5f4d 043d fef2 b83d
00000070: 8f7a 253d b9d0 04bd 7e06 32be 368d 71bd
00000080: 670d a0bd 1c71 24be 9794 783e e6a6 d7bd
00000090: 9d64 6a3d 7224 233e d6a0 2bbd 379b 263e
000000a0: 5251 a8bd 1012 9ebb 8a20 3e3e be5f 0c3e
000000b0: f563 bb3d 1052 80bd 6e52 2cbc 2188 b43d
000000c0: 674c 0cbc ccc4 c03d 72b9 12b9 c3cc f2bc
000000d0: a83c 243d fd35 03bd 0f1d 633d ddee 163d
000000e0: a84f 0a3e 020c 823a 2361 29bd beef ee3d
000000f0: 8c37 373d 8a1c b33d 313f c63b 00b9 323e
00000100: 171a c3bc 24aa b13d 5d66 a0bd 1550 8a3d
00000110: 326a 6b3c 9eee 913c cc19 d23c 56f6 adbd
00000120: b1af b83b 6528 21bd aeba b03c 8b3f 9d3d
00000130: 9bbe f9bc 1d60 313c b5b7 5d3b 110f 1d3d
00000140: 97eb f53d e0f9 d7ba 446b 8a3d 045e 163b
00000150: ee23 313d 0fca 43bc 86d3 e73c 31f8 1d3e
00000160: 5ed9 903d 87a7 173e baf2 8e3d d3d2 12be
00000170: 2faa 77bd 4c1c e63d e793 bc3d 15f8 12be
00000180: ce5e f8bc c635 213e a316 683c 0e7f 043c
00000190: fca8 16bd d35e cd3c eb06 c7bd 0749 983b
000001a0: 0129 0a3e 5764 a9bd 25ee 42bc e93a 703e
000001b0: b29a 0c3e 2206 333e 7ddc 493d 72f2 233e
000001c0: 6f59 83bc 77f9 33bd 747f 243e 29c3 cc3d
000001d0: 6923 1b3d 1a39 183e bf10 6f3d b162 d93d
000001e0: 45e9 683c eb5a a03d 400b f8bc 6dd7 8ebd
000001f0: 735e 913d 2e11 e3bc 3157 04bd 2cd8 283d

sequential/dense_1/BiasAdd/ReadVariableOp f4 [10]
-0.15103348 -0.11009143 -0.020240761 -0.08242765 0.05088658 0.10961624 -0.012936493 0.029459199
0.12879463 -0.031359777
00000000: 85a8 1abe 9e77 e1bd f4cf a5bc d4cf a8bd
00000010: 726e 503d 7b7e e03d 96f3 53bc 6b54 f13c
00000020: bde2 033e 1c73 00bd

sequential/dense/MatMul f4 [128, 784]
0.03779707 -0.08054174 0.062061764 -0.023445271 -0.03949471 0.042998284 -0.0628325 -0.046002373
0.07664817 0.07913441 -0.060850337 -0.06389494 -0.013049857 -0.104184605 0.054992355 -0.07121685
0.0134466365 0.06663183 -0.07908404 -0.050065584 -0.0019977838 0.0027592853 -0.043991443 -0.03967925
-0.009058408 -0.059830148 -0.06238416 0.043807648 -0.07204229 -7.996708e-05 -0.0029888302 0.009934686
-0.07060151 0.040897425 -0.049600765 -0.05151232 0.091787405 0.042895928 -0.0146166785 0.03694119
0.02332553 -0.0007245986 0.09939313 -0.0049943915 0.04684944 -0.026438866 -0.1648742 -0.07155588
-0.062146567 -0.08735244 0.05722648 -0.03704058 -0.04896533 -0.024561845 -0.028188415 0.048327617
0.054195814 0.008075945 -0.06344283 0.05951611 -0.043512575 -0.052958105 -0.0030790302 -0.0344116
0.116157785 0.13887735 0.13764022 0.04732568 0.055174474 0.026737414 -0.11301892 0.041956685
-0.035530332 -0.19659661 -0.48853645 -0.14715083 -0.17955354 -0.16092779 -0.046390906 0.13117403
0.1842354 0.020828353 -0.067492776 0.06931036 -0.074937575 0.039959192 0.16649038 0.089568116
0.0098007955 -0.12875232 0.024582533 0.05393661 0.036493 0.07314218 -0.04062208 -0.0060165795
0.014311158 0.121491686 -0.12530331 0.0014927802 -0.12287088 -0.1653811 -0.4182558 -0.41779557
-0.3555154 -0.34949398 -0.114469744 0.040460877 0.11170303 0.020103477 0.0307045 -0.052984834
-0.035834644 -0.031745348 0.20047534 -0.050177045 -0.040089983 0.062048808 -0.066669606 -0.13132733
0.05906244 -0.0035827018 -0.06947299 0.06654019 0.123843215 0.13274229 -0.017292354 0.044196337
-0.14111403 -0.15266632 -0.19817765 -0.2269998 -0.29652283 -0.3090544 -0.36165398 -0.28718835
-0.26540005 -0.21300669 -0.07077439 -0.033251144 -0.032293975 -0.08048121 0.07026203 0.03157593
0.19831517 -0.05449459 -0.02994929 -0.074428245 -0.22846933 -0.119022354 -0.06652554 -0.046957385
0.048774306 0.10539199 0.03157636 0.19880572 -0.025610363 0.0032069897 -0.1996966 -0.32170108
-0.53561133 -0.38560632 -0.34815136 -0.3008509 -0.2947081 -0.123602346 -0.0799306 0.026016086
-0.025596406 -0.0757753 -0.13475844 0.0501273 -0.0057819546 -0.20256291 -0.082178175 -0.23022063
-0.30617896 -0.21459015 -0.0045662615 -0.12470409 -0.09900938 0.012459755 0.06563373 0.051258285
0.22469456 0.09339269 -0.06693636 -0.29061925 -0.46484333 -0.47984052 -0.39774847 -0.22549368
-0.20940961 -0.18896867 -0.075617164 -0.14293619 -0.0019526631 0.021378083 -0.1229508 0.049800254
0.050384592 -0.15056914 -0.14440091 -0.16251011 -0.0919699 -0.011415635 -0.052872725 0.038518757
-0.20787734 -0.15513907 0.09251473 0.119960815 0.204902 0.24119133 -0.071551986 -0.37925908
-0.60305727 -0.53951496 -0.34837964 -0.29696465 -0.27290744 -0.18054141 -0.107746996 -0.12455208
0.048657767 0.023447812 -0.082069434 0.022127578 0.03297846 0.073785804 0.015166522 -0.040020958
0.041382287 -0.018555405 0.09840034 -0.07127887 -0.14216207 -0.064775296 0.23674344 0.29919186
0.33247635 0.14711648 -0.12284133 -0.47378775 -0.5522815 -0.6293996 -0.39453942 -0.30906576
-0.26301107 -0.17060591 -0.22945203 -0.05754638 -0.013785685 0.0542673 0.030360436 0.041000385
00000000: 1ad1 1a3d 11f3 a4bd 7a34 7e3d 4c10 c0bc
00000010: 34c5 21bd f81e 303d 53ae 80bd fc6c 3cbd
00000020: b7f9 9c3d 3911 a23d 343e 79bd 5adb 82bd
00000030: 11cf 55bc bd5e d5bd aa3f 613d 24da 91bd
00000040: 484f 5c3c 4576 883d d0f6 a1bd 9211 4dbd
00000050: 40ed 02bb 20d5 343b 5f30 34bd b686 22bd
00000060: b869 14bc 7510 75bd 8886 7fbd a66f 333d
00000070: e88a 93bd 00b4 a7b8 40e0 43bb 18c5 223c
00000080: 8697 90bd 0f84 273d 2c2a 4bbd 95fe 52bd
00000090: 09fb bb3d a4b3 2f3d cb7a 6fbc a54f 173d
000000a0: 2f15 bf3c fdf2 3dba a08e cb3d fea7 a3bb
000000b0: 33e5 3f3d 5296 d8bc c8d4 28be e48b 92bd
000000c0: 668d 7ebd d6e5 b2bd 5066 6a3d ddb7 17bd
000000d0: df8f 48bd ec35 c9bc 64eb e6bc 2ef3 453d
000000e0: 6efc 5d3d f850 043c 51ee 81bd 2ac7 733d
000000f0: 3e3a 32bd 99ea 58bd 8ec9 49bb 2ef3 0cbd
00000100: 22e4 ed3d dd35 0e3e 8ff1 0c3e 92d8 413d
00000110: a1fe 613d 6c08 db3c 7776 e7bd c6da 2b3d
00000120: 4188 11bd 9f50 49be 7321 fabe b5ae 16be
00000130: e2dc 37be 41ca 24be 6404 3ebd 7c52 063e
00000140: 34a8 3c3e 39a0 aa3c a739 8abd 97f2 8d3d
00000150: df78 99bd 40ac 233d 747c 2a3e 7d6f b73d
00000160: 8493 203c a6d7 03be 4f61 c93c a3ec 5c3d
00000170: af79 153d 91cb 953d 5763 26bd ba26 c5bb
00000180: 5979 6a3c a2d0 f83d 834f 00be 64a9 c33a
00000190: baa3 fbbd aa59 29be a025 d6be 4de9 d5be
000001a0: 1d06 b6be e0f0 b2be 1d6f eabd 4eba 253d
000001b0: 8fc4 e43d 0cb0 a43c 0188 fb3c a006 59bd
000001c0: 59c7 12bd 6907 02bd 6849 4d3e 7286 4dbd
000001d0: 6535 24bd e426 7e3d 138a 88bd ac7a 06be
000001e0: 75eb 713d c3cb 6abb db47 8ebd 3946 883d
000001f0: 83a1 fd3d 98ed 073e b2a8 8dbc 3807 353d
00000200: 3280 10be 8f54 1cbe 15ef 4abe a372 68be
00000210: d7d1 97be 613c 9ebe b62a b9be 5a0a 93be
00000220: 84e2 87be 6d1e 5abe 2af2 90bd 5a32 08bd
00000230: b046 04bd 55d3 a4bd 8ae5 8f3d c355 013d
00000240: 2213 4b3e b835 5fbd 3758 f5bc d66d 98bd
00000250: ddf3 69be fec1 f3bd 8b3e 88bd 6356 40bd
00000260: 91c7 473d c1d7 d73d 3756 013d ba93 4b3e
00000270: d3cc d1bc 5c2c 523b 447d 4cbe 01b6 a4be
00000280: d31d 09bf 316e c5be e540 b2be 2109 9abe
00000290: fbe3 96be 3a23 fdbd a8b2 a3bd b01f d53c
000002a0: 8eaf d1bc 1530 9bbd 1efe 09be 4952 4d3d
000002b0: 8d76 bdbb a76c 4fbe 084d a8bd f5be 6bbe
000002c0: 7dc3 9cbe 85bd 5bbe 94a0 95bb dc64 ffbd
000002d0: 6ec5 cabd 0024 4c3c fa6a 863d 35f4 513d
000002e0: 5516 663e ab44 bf3d ee15 89bd 0ccc 94be
000002f0: f2ff edbe a8ad f5be b0a5 cbbe d1e7 66be
00000300: 796f 56be 0181 41be 2cdd 9abd dd5d 12be
00000310: 80f0 ffba 1721 af3c a1cd fbbd 5afb 4b3d
00000320: 1360 4e3d cc2e 1abe d5dd 13be 0d69 26be
00000330: b75a bcbd a508 3bbc 1291 58bd d8c5 1d3d
00000340: ccdd 54be c7dc 1ebe 5d78 bd3d 04ae f53d
00000350: d4d1 513e dcfa 763e d989 92bd 3f2e c2be
00000360: f661 1abf a71d 0abf d15e b2be c00b 98be
00000370: 86ba 8bbe d9df 38be 75aa dcbd 2915 ffbd
00000380: 5e4d 473d a015 c03c 0514 a8bd e544 b53c
00000390: 6c14 073d 031d 973d 017d 783c 04ed 23bd
000003a0: 7980 293d 8101 98bc 1e86 c93d a8fa 91bd
000003b0: ef92 11be e9a8 84bd df6c 723e ad2f 993e
000003c0: 573a aa3e b4a5 163e 3c94 fbbd 4f94 f2be
000003d0: 5262 0dbf 5520 21bf 1201 cabe de3d 9ebe
000003e0: 63a9 86be 51b3 2ebe 79f5 6abe c1b5 6bbd
000003f0: 5bdd 61bc 6347 5e3d 73b6 f83c 05f0 273d

sequential/dense_1/MatMul f4 [10, 128]
-0.03201368 -0.4141465 0.23075335 0.022589423 0.15522633 0.24974431 0.33194518 0.24525207
-0.36700702 -0.15561107 0.013711206 -0.013899543 0.016937688 -0.343122 -0.8018483 0.16076376
0.17808683 -0.08903996 0.19228034 0.14505798 -0.2637052 0.12550645 0.059516493 0.23424226
-0.20407192 -0.14811532 0.18409798 -0.33821657 -0.72040594 -0.060894176 0.23951499 0.2647689
0.1700157 0.24761851 -0.54995984 0.24497716 0.14456655 -0.20668675 -0.21996023 -0.0993231
-0.46570647 -0.1482843 -0.071009874 -0.22285964 -0.19483511 -0.06605556 0.13216804 0.06558631
-0.20933796 0.09338411 0.13810113 0.013077201 0.14514942 -0.01424654 -0.6073953 -0.098549135
-0.17820472 -0.12549849 -0.59451085 -0.23046507 0.19081366 -0.09992923 -0.52744627 0.0020957384
0.040966213 0.28564608 -0.17074473 0.17865026 -0.03624835 -0.5745007 -0.15273277 0.016020838
-0.38947794 -0.070403926 -0.12463252 -0.65237015 0.28938073 -0.57803303 0.22549509 -0.15823416
0.02515325 0.22367768 0.28643164 -0.04714994 0.2436425 0.016886089 -0.2941239 -0.025563743
-0.2065498 -0.30323935 -0.27853101 0.18807474 0.025508158 -0.5756555 0.088184066 0.08100842
0.28600177 0.01743095 -0.32546666 0.026239207 0.17811672 0.07159197 -0.017698545 0.045462754
-0.16307542 -0.31155065 -0.06105119 -0.57132953 0.23792149 0.07609678 0.013534189 0.027972091
-0.062287703 0.09483669 -0.166721 -0.12008744 -0.24341226 -0.12894543 -0.2677599 0.16290134
-0.2739315 -0.774471 0.10594954 0.30093658 0.18321237 0.12522666 -0.108614884 -0.4428275
0.35987365 0.1413305 -0.584891 -0.039637562 0.10294389 -0.21242408 0.40835014 -0.13829859
0.26510635 0.24557093 0.5296385 -0.027610602 0.22628297 -0.19411263 0.2316029 -0.15566394
-0.33782357 -0.4500993 -0.35182303 0.01371233 0.5737976 -0.46975562 0.010667037 0.20658998
-0.12505849 0.16945347 -0.021204969 0.11997454 -0.4261455 0.07882925 0.18758912 0.12471087
-0.39281565 -0.30009466 0.088597305 0.05982597 -0.0027318262 0.12941876 -0.13565871 -0.33514822
-0.47692528 0.08301773 0.22977804 -0.119870834 -0.37666512 0.2764383 0.2122232 -0.28081912
0.29347906 -0.26095444 0.21301794 0.21334483 -0.27965295 -0.15023158 0.050017826 -0.18525866
-0.18531647 0.11982084 -0.06410517 -0.19844092 0.04047797 0.11425782 0.17601544 0.038751822
0.0036897017 0.5903855 0.1732811 -0.07770773 -0.42999464 0.20965417 0.098577 -0.2291711
0.002036702 0.18107797 -0.07221178 0.42311856 -0.0052585136 0.66736645 -0.12280932 0.09184795
0.017633475 -0.3662802 -0.143238 0.33463278 0.22659415 -0.68707174 0.31491977 -0.40317893
-0.36596763 -0.14369504 0.021362068 -0.26911744 -0.317937 -0.23656733 0.08429148 0.09639251
0.25120947 0.014384171 0.072950475 0.38961723 -0.58281094 0.041973576 -0.42872632 -0.16335508
0.27770805 0.0401442 -0.071408376 -0.2622748 -0.093614176 -0.12059382 -0.17158811 -0.16685458
0.078906365 -0.18077067 0.17907546 -0.283754 0.30483007 0.2351866 0.09772031 -0.62218356
0.29686722 0.28472435 0.3276346 0.06497717 -0.3935714 0.10199398 -0.07429461 0.2205027
00000000: c720 03bd 030b d4be 9b4a 6c3e 740d b93c
00000010: a7f3 1e3e f9bc 7f3e b8f4 a93e 5c23 7b3e
00000020: 58e8 bbbe 8258 1fbe f7a4 603c e9ba 63bc
00000030: e8c0 8a3c b0ad afbe ee45 4dbf 419f 243e
00000040: 655c 363e 955a b6bd 23e5 443e 148a 143e
00000050: 5e04 87be c384 003e 91c7 733d 34dd 6f3e
00000060: 3bf8 50be 8bab 17be 2e84 3c3e b92a adbe
00000070: 866c 38bf 2c6c 79bd 6b43 753e ca8f 873e
00000080: 9818 2e3e b58f 7d3e 2bca 0cbf 4bdb 7a3e
00000090: 4109 143e b1a5 53be 413d 61be e969 cbbd
000000a0: 1471 eebe d7d7 17be a06d 91bd 5135 64be
000000b0: db82 47be 2348 87bd 0f57 073e 1e52 863d
000000c0: b15c 56be 2b40 bf3d 626a 0d3e c241 563c
000000d0: 0da2 143e 526a 69bc 427e 1bbf 21d4 c9bd
000000e0: 4c7b 36be ad82 00be dd31 18bf 09ff 6bbe
000000f0: a864 433e b2a7 ccbd b806 07bf a858 093b
00000100: 30cc 273d 3440 923e b5d7 2ebe 18f0 363e
00000110: 2679 14bd 7a12 13bf fb65 1cbe 223e 833c
00000120: a769 c7be ef2f 90bd 563f ffbd bb01 27bf
00000130: b629 943e f9f9 13bf 2fe8 663e 2308 22be
00000140: 300e ce3c c30b 653e 2ba7 923e 4c20 41bd
00000150: 6b7d 793e b254 8a3c 6897 96be 0e6b d1bc
00000160: ca81 53be 3042 9bbe 9e9b 8ebe aa96 403e
00000170: 7cf6 d03c 295e 13bf d999 b43d bee7 a53d
00000180: d36e 923e 5acb 8e3c 91a3 a6be 9bf3 d63c
00000190: 3b64 363e d09e 923d 8afc 90bc 2737 3a3d
000001a0: 3efd 26be 9183 9fbe d010 7abd a742 12bf
000001b0: b1a1 733e a1d8 9b3d 81be 5d3c ba25 e53c
000001c0: 6421 7fbd bd39 c23d e9b8 2abe 67f0 f5bd
000001d0: 1041 79be 450a 04be d317 89be 9ccf 263e
000001e0: c040 8cbe bb43 46bf 13fc d83d 5c14 9a3e
000001f0: 069c 3b3e 6b3b 003e 7b71 debd 49ba e2be
00000200: 5c41 b83e f1b8 103e 6bbb 15bf ff5a 22bd
00000210: 3fd4 d23d b385 59be 4513 d13e 259e 0dbe
00000220: 05bc 873e f276 7b3e 6496 073f a12f e2bc
00000230: b9b6 673e 76c5 46be 5029 6d3e 5e66 1fbe
00000240: 36f7 acbe 6a73 e6be 2622 b4be aea9 603c
00000250: 66e4 123f cf83 f0be ccc4 2e3c 538c 533e
00000260: 550f 00be 3685 2d3e 0bb6 adbc 36b5 f53d
00000270: be2f dabe 3b71 a13d 5d17 403e 6a68 ff3d
00000280: 221f c9be 02a6 99be 8172 b53d 140c 753d
00000290: 7008 33bb 5a86 043e 1eea 0abe 8c98 abbe
000002a0: 8d2f f4be 3305 aa3d ef4a 6b3e d77e f5bd
000002b0: 40da c0be 5289 8d3e 0a51 593e 86c7 8fbe
000002c0: e342 963e d29b 85be 6021 5a3e 1177 5a3e
000002d0: ac2e 8fbe 4fd6 19be 7edf 4c3d 72b4 3dbe
000002e0: 9ac3 3dbe a164 f53d 9249 83bd 1934 4bbe
000002f0: 3acc 253d 0100 ea3d 643d 343e 3bba 1e3d
00000300: ecce 713b 8123 173f 9a70 313e 3b25 9fbd
00000310: 4228 dcbe 95af 563e bde2 c93d d4ab 6abe
00000320: 307a 053b 816c 393e c5e3 93bd ffa2 d83e
00000330: 9c4f acbb 87d8 2a3f 7483 fbbd c71a bc3d
00000340: 1474 903c 1489 bbbe fbac 12be fd54 ab3e
00000350: 4c08 683e efe3 2fbf 2a3d a13e 786d cebe
00000360: 1c60 bbbe cb24 13be 81ff ae3c c3c9 89be
00000370: a3c8 a2be b53e 72be 03a1 ac3d 7069 c53d
00000380: 879e 803e 96ab 6b3c 0f67 953d e97b c73e
00000390: 1933 15bf 7cec 2b3d 0482 dbbe 8e46 27be
000003a0: c02f 8e3e 3f6e 243d 8e3e 92bd e248 86be
000003b0: cab8 bfbd e5f9 f6bd cbb4 2fbe eddb 2abe
000003c0: a999 a13d f21b 39be 8f5f 373e 3448 91be
000003d0: b012 9c3e c2d4 703e 9621 c83d 6c47 1fbf
000003e0: fbfe 973e 64c7 913e b9bf a73e c012 853d
000003f0: 3182 c9be 38e2 d03d c627 98bd 76cb 613e
