ImageClassifiersProject/app/src/main/assets/mobilenet_imagenet_model.tflite (tflite, 534468 bytes, 16 tensors)

arith.constant f4 [32]
-0.0034256678 0.004759742 0.0007800513 -0.00030969546 -0.003905462 0.056291483 6.949273e-05 0.000385751
0.0 0.0069916304 0.0047101616 0.004093504 0.0011487862 -0.0032585883 -0.0051414827 -0.006005226
-0.0025304693 0.00022745623 0.022658333 0.0022085311 0.010833422 0.022274595 0.017208781 0.0039179605
0.043305054 0.0 0.010519279 0.0 0.004170515 0.0 -0.007332011 0.002576527
00000000: 2b81 60bb 9cf7 9b3b 5b7c 4c3a 9f5e a2b9
00000010: c8f2 7fbb e691 663d a0bc 9138 9f3e ca39
00000020: 0000 0000 0c1a e53b b357 9a3b cd22 863b
00000030: de92 963a 0a8e 55bb e279 a8bb 7dc7 c4bb
00000040: 3bd6 25bb 5181 6e39 f89d b93c 01bd 103b
00000050: aa7e 313c 3679 b63c 6ef9 8c3c 3c62 803b
00000060: a460 313d 0000 0000 0e59 2c3c 0000 0000
00000070: d1a8 883b 0000 0000 5e41 f0bb f3da 283b

arith.constant1 f4 [64]
0.0 -0.00010431109 -0.010738377 0.018258886 -0.0031476812 -0.0033232656 0.0 -0.0012508528
0.0012475622 -0.013025217 0.0 0.0027040609 -0.0057148966 0.003748351 -0.009076064 0.0010819978
-0.0008345235 0.007070176 0.0 -0.008409216 0.0 0.005057505 -0.008283054 -0.015932577
0.0 0.00079899566 0.007643605 0.0049501644 -0.0063168127 0.013896291 -0.0010861829 -0.0060046874
0.0 0.004600047 -0.010142234 0.0024541959 0.021307644 -0.004317838 0.0008169741 -0.0047713076
-0.0025072694 0.0059311674 0.0 0.0018442706 0.006890209 -0.0060186484 0.005242459 0.004737463
0.0010913857 -0.00061177206 0.003246783 0.022165116 0.0011891614 -0.009644162 0.010519218 -0.002325247
-0.0007064797 -0.01030771 0.004304009 0.01927652 -0.0059977025 0.0014081179 0.005329796 0.0
00000000: 0000 0000 97c1 dab8 05f0 2fbc a993 953c
00000010: 5449 4ebb 25cb 59bb 0000 0000 a8f3 a3ba
00000020: 3e85 a33a b867 55bc 0000 0000 9d36 313b
00000030: 0744 bbbb e5a6 753b c6b3 14bc d2d1 8d3a
00000040: edc3 5aba efac e73b 0000 0000 cfc6 09bc
00000050: 0000 0000 6db9 a53b a6b5 07bc 0985 82bc
00000060: 0000 0000 b173 513a 3577 fa3b fd34 a23b
00000070: 44fd cebb 45ad 633c 405e 8eba f8c2 c4bb
00000080: 0000 0000 febb 963b 9d2b 26bc 93d6 203b
00000090: 5e8d ae3c a67c 8dbb 342a 563a a158 9cbb
000000a0: 0051 24bb 3d5a c23b 0000 0000 74bb f13a
000000b0: 43c7 e13b 1538 c5bb efc8 ab3b b83c 9b3b
000000c0: d40c 8f3a 545f 20ba fbc7 543b 9e93 b53c
000000d0: a3dd 9b3a 8c02 1ebc cc58 2c3c 2c63 18bb
000000e0: 0d33 39ba abe1 28bc a508 8d3b cbe9 9d3c
000000f0: 6088 c4bb 9990 b83a 92a5 ae3b 0000 0000

arith.constant2 f4 [128]
0.008275156 0.014990552 -0.008001843 -0.013099074 -0.0012155018 -0.015662553 0.0025650426 -0.009017842
0.0038748502 -0.0060041323 -0.0051972736 -0.017495928 -0.005695921 0.0023377219 -0.0014858064 -0.008735201
-0.0009167852 -0.008363438 -0.0065019573 0.0049105086 -0.0062651085 0.0007478768 0.0062858723 -0.011080153
-0.002520017 -0.0009595072 0.0099360235 0.0031843127 0.014542019 -0.008740888 0.007290957 0.0018522993
0.0031680712 0.0083594285 -0.011479537 -0.0026846558 0.0019333658 0.010647453 -0.0056213303 -0.00020717773
0.0068791704 0.00089016894 -0.0009036578 -0.009041433 -3.597897e-05 0.006188604 -0.0050047776 0.0028700978
0.0045760954 -0.0006017997 -0.008743092 0.0026397516 -0.0070763677 0.0007005088 -0.0020947757 0.013963168
0.00017670236 -0.012050235 0.0 0.006471151 -0.0010609986 0.00074767927 0.00094049104 -0.0029875184
-0.008557098 -0.0025519598 -0.0051046456 -0.00011563809 -0.013107068 0.0026702126 0.011372307 -0.0062806634
-0.003462358 -0.00780352 -0.0061389697 -0.006950715 0.010673012 0.018643294 -0.0064115734 -0.0060024573
0.01166124 -0.0084982775 0.0028708691 -0.009264495 0.00207031 0.006911819 -0.0007685443 0.0
0.00391382 -0.008574303 0.010795343 0.009042937 0.0 -0.012014274 0.0020983366 0.006818272
0.00020876466 0.010793909 -0.0011665599 -0.0043069553 0.0029818541 0.0068135057 -0.0070237014 0.019334782
0.015020891 0.0008812064 0.016231582 -0.007419264 -0.0037536002 -0.014167665 -0.0022697092 -0.006244799
0.022900656 -0.0047965753 0.0084782 0.0007225358 0.012162315 0.0030042396 -0.014005964 -0.0055606132
-0.00017279104 -0.016438155 -0.0059965537 -0.014629893 0.01082631 0.0018549516 0.0 -0.0055617914
00000000: 8594 073c ef9a 753c 291a 03bc 809d 56bc
00000010: 7951 9fba c14e 80bc 461a 283b 92bf 13bc
00000020: 33f1 7d3b 50be c4bb e44d aabb 9f53 8fbc
00000030: d9a4 babb 7734 193b 64bf c2ba 171e 0fbc
00000040: 6a54 70ba cd06 09bc 5f0e d5bb 55e8 a03b
00000050: 8a4b cdbb 2a0d 443a b8f9 cd3b 8889 35bc
00000060: df26 25bb 7087 7bba b4ca 223c e7af 503b
00000070: a641 6e3c f135 0fbc fbe8 ee3b dac8 f23a
00000080: 6a9f 4f3b fcf5 083c ab14 3cbc 0df1 2fbb
00000090: fe68 fd3a a872 2e3c 2333 b8bb d93d 59b9
000000a0: aa6a e13b 3a5a 693a 73e3 6cba 8522 14bc
000000b0: 20e8 16b8 c6c9 ca3b 1eff a3bb 4018 3c3b
000000c0: 12f3 953b 18c2 1dba 303f 0fbc afff 2c3b
000000d0: e0e0 e7bb 5aa2 373a 8148 09bb c5c5 643c
000000e0: 2e49 3939 596e 45bc 0000 0000 f30b d43b
000000f0: 3511 8bba e8ff 433a 498b 763a 3eca 43bb
00000100: 1233 0cbc c83e 27bb df44 a7bb ba82 f2b8
00000110: 07bf 56bc bcfe 2e3b ea52 3a3c 06ce cdbb
00000120: bae8 62bb acb4 ffbb 6929 c9bb d3c2 e3bb
00000130: dbdd 2e3c d2b9 983c 2d18 d2bb 43b0 c4bb
00000140: c90e 3f3c 5c3c 0bbc 3125 3c3b 1cca 17bc
00000150: 0aae 073b 8a7c e23b 2378 49ba 0000 0000
00000160: 803f 803b 3c7b 0cbc f3de 303c d428 143c
00000170: 0000 0000 84d7 44bc 3f84 093b d06b df3b
00000180: d6e7 5a39 f0d8 303c 41e7 98ba 5c21 8dbb
00000190: 366b 433b d443 df3b 1427 e6bb fa63 9e3c
000001a0: 2f1a 763c c300 673a 18f8 843c 4c1d f3bb
000001b0: f6fe 75bb 7e1f 68bc 67bf 14bb 2ca1 ccbb
000001c0: 289a bb3c 972c 9dbb 26e8 0a3c 8f68 3d3a
000001d0: 7244 473c c7e2 443b 4579 65bc ce35 b6bb
000001e0: 3e2f 35b9 4fa9 86bc bd7e c4bb 38b2 6fbc
000001f0: d660 313c d921 f33a 0000 0000 b03f b6bb

arith.constant3 f4 [32]
-0.0054309154 0.00042461834 0.010275269 0.0044665844 -0.0065848557 0.004245493 -0.0011031043 -0.0066353674
-0.01192552 0.0033638927 -0.008629401 -0.0059224814 0.0012842586 0.0009346715 -0.009753937 0.00210833
-0.007902213 -0.004111609 -0.00088433776 -0.010657684 0.0015271803 -0.009628619 0.0050024157 -0.0084763765
0.008160818 0.0009381453 -0.011752647 -0.012634057 -0.0033748795 0.015763288 0.007909637 0.00034449255
00000000: d2f5 b1bb 4f9f de39 9a59 283c 6d5c 923b
00000010: c6c5 d7bb c71d 8b3b 0a96 90ba 7f6d d9bb
00000020: 4263 43bc c174 5c3b 5562 0dbc 6011 c2bb
00000030: 9154 a83a be04 753a face 1fbc e82b 0a3b
00000040: 4978 01bc adba 86bb e7d2 67ba 919d 2ebc
00000050: ab2b c83a 5bc1 1dbc 4eeb a33b 80e0 0abc
00000060: f4b4 053c deed 753a 2d8e 40bc 13ff 4ebc
00000070: 152d 5dbb 0322 813c 6c97 013c 029d b439

arith.constant4 f4 [32]
-0.00068800594 -0.0097152935 0.0025669502 -0.0066586486 -0.0068007084 -0.0026425761 0.01755156 -0.00919252
0.008969549 -0.010685579 -0.0029173344 0.0011218737 -0.009351912 0.015283377 0.012422738 -0.010363651
0.0068828654 -0.008021887 0.01883063 0.005244132 0.0031847549 0.0016790077 -0.0035213577 -0.012610247
0.00025233527 0.006660607 0.007016296 0.00078097166 -0.00461994 -0.00741765 0.0007385974 -0.0014458111
00000000: 4c5b 34ba e52c 1fbc 473a 283b cb30 dabb
00000010: 7ad8 debb 122f 2dbb 4ac8 8f3c 399c 16bc
00000020: 04f5 123c 9112 2fbc c030 3fbb d60b 933a
00000030: c338 19bc 2167 7a3c bd88 4b3c 4ecc 29bc
00000040: a989 e13b 3c6e 03bc b242 9a3c f8d6 ab3b
00000050: 52b7 503b 2612 dc3a 94c6 66bb 369b 4ebc
00000060: de4b 8439 3941 da3b f5e8 e53b 1fba 4c3a
00000070: de62 97bb c20f f3bb 6f9e 413a 5f81 bdba

arith.constant5 f4 [64]
-0.0023252964 0.0075277924 -0.012873368 0.016139 0.0019457988 0.0113246115 0.0031739685 -0.005368785
-0.0056653027 -0.0034182256 -0.006434158 -0.001802602 -0.008400391 0.0144754015 -0.009629451 -0.0070196544
0.017920176 -0.0060302364 -0.012914266 0.0059236162 -0.008825215 -0.003081921 -0.00858192 -0.010515827
-0.03356307 -0.0016079125 -0.009891923 0.0068338704 -0.0053197215 0.0028165746 -0.002480517 -0.006959596
-0.008284687 0.012549377 0.00059911143 0.005310263 0.0038857376 -0.0069261263 0.00013478915 0.007531545
-0.010044585 -0.0055141477 -0.0013871237 -0.011330324 -0.0075497027 -0.0064632366 0.016992087 -0.0020871148
0.010084554 -0.013483752 0.017470954 0.0053654225 0.0017645047 0.0098981755 0.017300509 0.008332103
0.00025587442 -0.014551922 -0.0077189994 0.008000869 -0.006840269 -0.0034059184 -0.00622276 -0.0054369248
00000000: 0064 18bb b3ab f63b d2ea 52bc f035 843c
00000010: 2c0a ff3a dd8a 393c 5b02 503b a2ec afbb
00000020: 01a4 b9bb 4f04 60bb a1d5 d2bb 4945 ecba
00000030: cba1 09bc 3c2a 6d3c d8c4 1dbc 2105 e6bb
00000040: 55cd 923c 4a99 c5bb 5c96 53bc e51a c23b
00000050: a297 10bc 0efa 49bb 2e9b 0cbc 934a 2cbc
00000060: 6e79 09bd 97c0 d2ba bb11 22bc a9ee df3b
00000070: 0f51 aebb 4896 383b 2b90 22bb 530d e4bb
00000080: 7fbc 07bc e79b 4d3c b00d 1d3a b701 ae3b
00000090: dca7 7e3b 8ff4 e2bb 3056 0d39 2ecb f63b
000000a0: 0b92 24bc 06b0 b4bb 26d0 b5ba d3a2 39bc
000000b0: 7f63 f7bb 8fc9 d3bb fd32 8b3c fac7 08bb
000000c0: af39 253c f4ea 5cbc 3f1f 8f3c 6dd0 af3b
000000d0: f446 e73a f52b 223c ccb9 8d3c 5f83 083c
000000e0: e226 8639 2f6b 6ebc a9ef fcbb 1416 033c
000000f0: 5624 e0bb d435 5fbb 4be8 cbbb 3b28 b2bb

arith.constant6 f4 [2]
-0.0048351916 0.0048351875
00000000: 8770 9ebb 7e70 9e3b

arith.constant7 f4 [32, 3, 3, 32]
-0.0153091075 -0.0009130336 -0.042063802 0.03191871 0.0764109 -0.09682809 -0.02062305 0.0239376
0.06426599 0.020263135 -0.09151307 -0.08527669 -0.009586856 -0.021591263 0.06596343 -0.023761705
-0.058249865 0.07388231 -0.032248758 -0.10001374 -0.03773395 -0.09315728 0.04401653 -0.0020886923
0.018830674 0.029512279 -0.03698411 -0.07185152 -0.047845647 -0.1032083 0.05868561 0.050066218
0.016010417 0.03953854 -0.020652864 0.081283905 0.011954287 -0.06578888 0.05138493 0.02090427
-0.011916735 0.0683195 -0.0594352 0.06803145 0.018529395 -0.10637323 0.08354687 -0.08394225
-0.08063691 0.04747415 0.06729449 -0.04637065 0.0031821372 0.08656921 0.025960077 -0.031666066
-0.055236626 -0.101065814 -0.06788435 -0.02077619 0.0098017305 0.05406285 -0.0934812 -0.057292767
-0.01113127 0.06989616 -0.0061252504 -0.08824619 -0.011784046 0.071592815 -0.0768516 0.093372695
-0.07338153 -0.03271225 0.080073215 0.0019607742 0.057941396 -0.004897021 -0.021440396 -0.054921143
0.013407346 0.0033158818 0.008531054 -0.09072516 0.0011096271 0.050568093 -0.052932445 0.067585535
0.071744606 -0.025007559 -0.09044271 -0.031612985 -0.07764019 -0.08462105 -0.02975591 -0.024387114
-0.009209591 -0.08899644 -0.05306708 0.036516793 0.021301385 0.045134082 -0.07296027 0.07075867
-0.06697044 0.05270737 -0.063617684 -0.040364444 -0.08845784 0.054745845 0.07788888 -0.08969827
0.07333951 -0.0441407 0.030417275 -0.030443858 0.07874457 0.09562171 -0.05770443 -0.0704247
-0.10187564 0.089245416 0.06316079 0.0897673 -0.09910658 0.053960696 -0.09352216 0.08163778
0.07166962 -0.034824498 -0.083555765 0.04738172 0.09221533 -0.070219465 0.08278167 0.0756817
-0.09961053 -0.0858467 -0.025916362 0.0016232132 -0.08779056 0.06625588 0.053042103 0.018568104
0.033352304 -0.10419024 0.041847996 -0.03820532 -0.019615872 -0.015691873 0.054679133 0.04156876
-0.01573809 0.0075842645 0.041179217 0.065821506 0.03331016 -0.024857117 -0.10191482 0.060232468
0.07606573 0.027954783 0.092081994 -0.031198123 -0.04156507 -0.06608106 -0.07541501 0.031329237
0.0038945302 0.08474247 0.09274591 -0.08675772 0.006502045 0.015027547 0.035682265 0.04287027
-0.059636015 -0.011130957 0.09808205 0.02725963 -0.035768457 0.030557763 0.013380786 0.03362898
0.08468761 -0.09924567 0.050646108 -0.065995 0.0031660795 -0.013223035 -0.10442601 0.0119679095
-0.0068176985 -0.046467397 0.08252133 -0.08479502 0.06706502 0.06596048 -0.00889079 -0.0035262883
-0.07532496 0.090435654 -0.06244074 -0.043968022 0.09466693 -0.016255675 -0.08499568 -0.056029197
-0.020843644 -0.028460909 -0.010945193 -0.072170936 -0.086994834 0.074677974 -0.050062653 0.07007339
-0.084207736 0.025948487 0.08828065 -0.052251834 0.0072268657 0.016139308 0.016417671 0.051776286
-0.05504576 0.083828315 0.09014193 0.07809667 0.0076253056 0.05555788 -0.07135661 -0.022895535
0.016093858 -0.03990398 -0.04683541 0.073385194 0.05318133 -0.069126606 0.061894957 -0.0058270236
0.060955856 -0.056305233 0.0081109665 0.039046053 -0.07042307 0.08212981 -0.07943112 -0.036327317
0.024571287 0.02350141 -0.099812046 -0.09275138 -0.0034045246 0.015954357 -0.05487519 0.013942452
00000000: 0dd3 7abc a658 6fba 184b 2cbd 31bd 023d
00000010: 517d 9c3d ce4d c6bd acf1 a8bc c918 c43c
00000020: e39d 833d e0fe a53c 346b bbbd 8ca5 aebd
00000030: 3012 1dbc 29e0 b0bc d617 873d e8a7 c2bc
00000040: 6997 6ebd 9c4f 973d 4617 04bd 01d4 ccbd
00000050: ea8e 1abd 3ec9 bebd ad4a 343d 71e2 08bb
00000060: c942 9a3c bcc3 f13c a67c 17bd e426 93bd
00000070: ccf9 43bd e05e d3bd 5260 703d 3c12 4d3d
00000080: 4728 833c 2af3 213d 3230 a9bc 2d78 a63d
00000090: eadb 433c 52bc 86bd 0179 523d 6e3f ab3c
000000a0: 693e 43bc 18eb 8b3d 5372 73bd 1354 8b3d
000000b0: f5ca 973c 35da d9bd 9f1a ab3d eae9 abbd
000000c0: f724 a5bd 4174 423d b2d1 893d 27ef 3dbd
000000d0: 678b 503b 334b b13d 3aaa d43c 47b4 01bd
000000e0: cd3f 62bd 98fb cebd f306 8bbd d432 aabc
000000f0: 7097 203c 0271 5d3d 1273 bfbd d2ab 6abd
00000100: ee5f 36bc b825 8f3d 53b6 c8bb 6bba b4bd
00000110: df11 41bc 419f 923d 5f64 9dbd 2f3a bf3d
00000120: 0e49 96bd 48fd 05bd 6dfd a33d 5580 003b
00000130: f553 6d3d 3177 a0bb c5a3 afbc fef4 60bd
00000140: 7caa 5b3c 444f 593b d5c5 0b3c 1dce b9bd
00000150: e870 913a 7d20 4f3d b1cf 58bd 496a 8a3d
00000160: d6ee 923d a7dc ccbc 073a b9bd 9e7c 01bd
00000170: d201 9fbd cd4d adbd abc2 f3bc 7cc7 c7bc
00000180: d3e3 16bc c443 b6bd de5c 59bd a292 153d
00000190: 3e80 ae3c 84de 383d 326c 95bd ece9 903d
000001a0: cc27 89bd afe3 573d fd49 82bd 3055 25bd
000001b0: 6229 b5bd 2e3d 603d 3584 9f3d bab3 b7bd
000001c0: 0633 963d e1cc 34bd a62d f93c 6665 f9bc
000001d0: d544 a13d 51d5 c33d 7b5b 6cbd d33a 90bd
000001e0: 2da4 d0bd 4dc6 b63d 725a 813d ebd7 b73d
000001f0: 64f8 cabd e405 5d3d 8c88 bfbd b531 a73d
00000200: 86c7 923d 22a4 0ebd 491f abbd 5613 423d
00000210: 64db bc3d 39cf 8fbd 7089 a93d 02ff 9a3d
00000220: 9b00 ccbd 65d0 afbd 8d4e d4bc ffc1 d43a
00000230: 8acb b3bd 2ab1 873d ad42 593d 231c 983c
00000240: 6d9c 083d b161 d5bd ce68 2b3d 2e7d 1cbd
00000250: 77b1 a0bc 3e8c 80bc 3af7 5f3d 0144 2a3d
00000260: 2bed 80bc 6c85 f83b 8aab 283d 6dcd 863d
00000270: 3c70 083d 27a1 cbbc b8b8 d0bd 52b6 763d
00000280: 59c8 9b3d 6e01 e53c 7c95 bc3d 3593 ffbc
00000290: 2340 2abd 8255 87bd 2f73 9abd 1653 003d
000002a0: 603b 7f3b 768d ad3d 91f1 bd3d 08ae b1bd
000002b0: 1b0f d53b 1a36 763c 9127 123d bc98 2f3d
000002c0: e544 74bd 9e5e 36bc 3edf c83d 964f df3c
000002d0: f281 12bd 4654 fa3c 163b 5b3c 8bbe 093d
000002e0: b370 ad3d 5041 cbbd 4b72 4f3d 6328 87bd
000002f0: 007e 4f3b 6ea5 58bc 4edd d5bd 0d15 443c
00000300: 0067 dfbb 9954 3ebd f100 a93d 03a9 adbd
00000310: 6359 893d 4a16 873d adaa 11bc 4d19 67bb
00000320: f943 9abd 5436 b93d ddc1 7fbd d017 34bd
00000330: bce0 c13d 9f2a 85bc 3712 aebd df7e 65bd
00000340: 4ac0 aabc da26 e9bc 7753 33bc 5bce 93bd
00000350: 592a b2bd c4f0 983d 7f0e 4dbd a382 8f3d
00000360: 1b75 acbd ec91 d43c 7ccc b43d 0506 56bd
00000370: 58cf ec3b 9536 843c 5a7e 863c 5f13 543d
00000380: aa77 61bd 2eae ab3d 559c b83d 26f1 9f3d
00000390: b3dd f93b a990 633d 6a23 92bd 6b8f bbbc
000003a0: 44d7 833c 5b72 23bd 7dd6 3fbd fa4a 963d
000003b0: abd4 593d 4092 8dbd 9185 7d3d 9ef0 bebb
000003c0: d9ac 793d 51a0 66bd dce3 043c c1ee 1f3d
000003d0: f839 90bd ac33 a83d c8ac a2bd f4cb 14bd
000003e0: b949 c93c 0786 c03c 426a ccbd 6ff4 bdbd
000003f0: 721e 5fbb b6b2 823c cfc4 60bd e26e 643c

arith.constant8 f4 [32, 3, 3, 64]
0.0334126 0.080654524 0.042291954 0.0579591 0.076602355 0.06344996 -0.034053136 -0.012711292
-0.034933385 0.07870567 -0.07273467 -0.073156185 0.04159238 -0.041059807 -0.02162538 0.009371367
-0.011904513 0.0058622025 -0.020328907 0.058077373 -0.031778004 0.012276264 0.059642423 0.0313845
0.053457677 0.04601614 -0.010317768 0.041779347 -0.06310038 0.025716977 0.07734513 -0.08176479
0.073226936 0.04343901 0.08722135 -0.08707071 0.07646332 0.081482135 0.08326609 0.07006843
-0.059361678 -0.057864856 0.015631853 0.05923483 -0.011877829 -0.050240595 -0.054135036 -0.017011376
0.017827518 0.049755014 0.043329537 -0.050914768 -0.0070163347 -0.02165586 0.015814435 -0.046720933
0.04559809 0.030625327 -0.06681287 -0.0050069992 0.03617951 0.06697644 0.023530927 -0.031055793
-0.07403755 0.042653523 0.026147187 -0.024118578 0.019972771 0.0020141196 0.0479515 -0.033151977
-0.003652018 0.09105779 0.010627713 -0.06522647 0.050939515 0.016390644 -0.031839322 0.07128102
0.07943671 -0.025341826 0.008837553 0.028987983 0.074819535 0.012668463 -0.04104246 0.009063666
0.07974991 0.0019782288 -0.030293377 0.015996074 -0.062302157 -0.078605235 0.03506038 -0.071893774
-0.05673347 -0.028943976 0.011788967 0.013144722 -0.037036605 -0.019055584 0.06359188 -0.040319122
-0.0689098 0.035483416 0.011745768 0.030623596 0.056424703 -0.0656611 0.03290946 -0.023708044
-0.041832265 -0.05346437 -0.014145454 -0.0521841 0.07338852 -0.014048638 -0.023625117 0.059439965
0.0710043 -0.059079714 0.0018843606 -0.07103523 -0.018410124 0.061872374 0.07181901 -0.025070291
-0.04431739 0.06448653 -0.075499244 0.058848795 -0.07440712 0.055354252 -0.0045932783 -0.06336527
0.03349482 0.04107222 -0.06433322 -0.024014845 0.0080483975 0.0038416788 -0.08140109 0.03383341
-0.00058579835 -0.053990237 -0.016736178 -0.077369526 0.0017820116 -0.039160084 -0.0385336 -0.02566276
-0.06396915 -0.043255467 -0.07962765 0.08856021 0.06831352 0.061337534 0.04263401 0.062133763
0.0024220773 0.029036846 0.010505141 0.0032618446 0.07338879 0.07634295 0.082156435 0.057481945
-0.06888414 0.04572013 -0.07319273 -0.077027425 -0.031615704 -0.08456804 0.07762895 -0.0392929
0.10039589 0.02113572 0.02296975 -0.0326134 0.04171507 0.045562312 -0.036364976 -0.08463985
0.060739987 -0.024454216 0.009218948 0.03965296 0.052057717 0.047773894 0.088399194 0.016228447
-0.009353967 0.037104297 -0.041833088 -0.060199276 -0.0796748 -0.09665857 0.04218147 -0.06956586
-0.07434504 -0.042655334 0.05777485 -0.06015261 -0.046540752 0.006461247 -0.030355234 -0.009146075
0.03582847 0.076469176 0.008776696 -0.016748182 0.024184918 -0.010089633 0.0017816982 -0.053962298
0.06317822 0.019686082 -0.06321249 -0.05421019 -0.07411663 -0.08561653 -0.04338251 -0.065989956
-0.02790408 0.042937204 -0.06342655 0.050164074 -0.020554304 -0.011567064 0.0407463 0.02675909
0.004277356 -0.07557922 -0.06328536 -0.035971485 0.04987025 0.040100675 0.076079994 -0.07853437
-0.0038622285 0.029946763 0.058360644 -0.08437223 0.05965744 -0.026695233 0.030951627 -0.0032311915
0.02976259 -0.0070614675 -0.06434994 -0.06918081 0.042310204 0.013966359 -0.05811632 -0.056571316
00000000: a7db 083d 332e a53d 543a 2d3d 8566 6d3d
00000010: b2e1 9c3d 0df2 813d 4d7b 0bbd 0643 50bc
00000020: 4f16 0fbd 7030 a13d eaf5 94bd e9d2 95bd
00000030: c55c 2a3d 542e 28bd b527 b1bc 5d8a 193c
00000040: 260b 43bc b817 c03b cf88 a6bc 8ae2 6d3d
00000050: a729 02bd 6222 493c 9d4b 743d 098d 003d
00000060: 70f6 5a3d 6c7b 3c3d db0b 29bc d220 2b3d
00000070: c63a 81bd 69ac d23c 2067 9e3d 4c74 a7bd
00000080: 01f8 953d 1aed 313d 1ba1 b23d 2152 b2bd
00000090: cd98 9c3d 1be0 a63d 6987 aa3d 0980 8f3d
000000a0: 3b25 73bd b303 6dbd 5f0e 803c 39a0 723d
000000b0: 3a9b 42bc 15c9 4dbd b3bc 5dbd 715b 8bbc
000000c0: 040b 923c eacb 4b3d 507a 313d 018c 50bd
000000d0: 48e9 e5bb a167 b1bc 468d 813c 735e 3fbd
000000e0: 10c5 3a3d f7e1 fa3c 30d5 88bd c111 a4bb
000000f0: f730 143d f22a 893d eec3 c03c b868 febc
00000100: 00a1 97bd 76b5 2e3d a032 d63c 5394 c5bc
00000110: f09d a33c 52ff 033b cb68 443d 5eca 07bd
00000120: b256 6fbb 827c ba3d dc1f 2e3c 7595 85bd
00000130: f4a5 503d ac45 863c f369 02bd c9fb 913d
00000140: b7af a23d a999 cfbc 62cb 103c 3578 ed3c
00000150: fc3a 993d 638f 4f3c 231c 28bd c57f 143c
00000160: ec53 a33d 2ca5 013b d129 f8bc 330a 833c
00000170: 8c30 7fbd c8fb a0bd 799b 0f3d 0b3d 93bd
00000180: 5b61 68bd eb1b edbc 8326 413c f65c 573c
00000190: b2b3 17bd 751a 9cbc 763c 823d aa25 25bd
000001a0: 9520 8dbd 0f57 113d 5271 403c 56de fa3c
000001b0: 971d 673d 5479 86bd 12cc 063d 5f37 c2bc
000001c0: 4f58 2bbd 75fd 5abd 56c2 67bc ffbe 55bd
000001d0: b84c 963d 422c 66bc 7689 c1bc 5277 733d
000001e0: b46a 913d 92fd 71bd a6fc f63a eb7a 91bd
000001f0: d4d0 96bc e36d 7d3d d815 933d 3660 cdbc
00000200: 2786 35bd 8411 843d 599f 9abd 6f0b 713d
00000210: c362 98bd 24bb 623d 3683 96bb a7c5 81bd
00000220: dd31 093d 583b 283d 23c1 83bd c8ba c4bc
00000230: 6ddd 033c adc4 7b3b 9db5 a6bd e794 0a3d
00000240: 4390 19ba de24 5dbd 4f1a 89bc ea73 9ebd
00000250: 6392 e93a 5366 20bd 68d5 1dbd b53a d2bc
00000260: 4202 83bd a52c 31bd d213 a3bd 0e5f b53d
00000270: f5e7 8b3d 113d 7b3d 00a1 2e3d f97f 7e3d
00000280: b7bb 1e3b aede ed3c c11d 2c3c acc4 553b
00000290: dd4c 963d b159 9c3d a241 a83d 3072 6b3d
000002a0: 2113 8dbd 0845 3b3d 12e6 95bd 8ec0 9dbd
000002b0: 787f 01bd 0232 adbd edfb 9e3d 98f1 20bd
000002c0: 5c9c cd3d d124 ad3c 0f2b bc3c a195 05bd
000002d0: 6cdd 2a3d 8c9f 3a3d 71f3 14bd a857 adbd
000002e0: 7eca 783d 3554 c8bc 120b 173c 246b 223d
000002f0: 793a 553d 8fae 433d a30a b53d 85f1 843c
00000300: 6241 19bc adfa 173d 2c59 2bbd 8493 76bd
00000310: 8b2c a3bd eef4 c5bd 7ac6 2c3d 8c78 8ebd
00000320: 3642 98bd 5cb7 2ebd 52a5 6c3d 9562 76bd
00000330: 84a1 3ebd deb8 d33b 8aab f8bc 6bd9 15bc
00000340: e0c0 123d df9b 9c3d 22cc 0f3c 7c33 89bc
00000350: 731f c63c fd4e 25bc df87 e93a 9207 5dbd
00000360: 9563 813d b544 a13c 8d75 81bd 810b 5ebd
00000370: 76ca 97bd b857 afbd dcb1 31bd be25 87bd
00000380: 1997 e4bc ecde 2f3d c7e5 81bd d878 4d3d
00000390: 8061 a8bc c883 3dbc 98e5 263d e135 db3c
000003a0: 1029 8c3b 47c9 9abd c19b 81bd d656 13bd
000003b0: bf44 4c3d 9b40 243d d4cf 9b3d a1d6 a0bd
000003c0: 711d 7dbb ea52 f53c 920b 6f3d 59cb acbd
000003d0: 5c5b 743d f6af dabc 448e fd3c 66c2 53bb
000003e0: add0 f33c e263 e7bb e7c9 83bd abae 8dbd
000003f0: 774d 2d3d 28d3 643c 610b 6ebd 53b7 67bd

arith.constant9 f4 [64, 3, 3, 128]
-0.034183975 -0.03074342 0.00095519103 0.0048635406 0.0036894388 0.041344136 0.009671431 0.0314467
0.07478261 0.029254844 -0.028426267 -0.045143157 0.016437711 -0.06800462 0.024988025 0.021445824
-0.043702915 -0.035300117 -0.019376414 0.047128163 0.0033090771 0.029022992 -0.05197095 -0.0466831
-0.019787604 -0.015532406 -0.013366004 -0.060252093 -0.049009915 -0.076509416 -0.049936507 0.038368754
-0.012832182 -0.07911125 -0.023427757 0.012197171 -0.03591711 -0.015935877 -0.021158308 -0.022061229
-0.018991565 0.015004995 0.015431383 -0.016977848 -0.016995553 0.05339394 -0.011257122 -0.09818343
-0.055650633 0.062461924 -0.034164015 -0.024268687 -0.035542242 0.026892854 0.08650655 -0.059656803
0.02760945 0.0673295 -0.02923946 0.0342974 -0.08283067 -0.08145569 0.00023713362 0.012672968
0.005146126 0.030037183 0.020137005 -0.043162238 0.008129481 0.04201115 -0.0044310302 -0.009095704
0.005464102 -0.027637385 0.060803276 0.0062115933 -0.061301105 -0.0126082525 -0.03820486 0.057102762
0.050862882 -0.030419897 -0.052695446 0.07568263 -0.037872616 -0.0392761 -0.06534545 -0.052032713
-0.024567911 -0.029664425 0.0017375738 0.0111940205 -0.054018416 0.002629851 -0.012866391 0.0635272
0.020080214 -0.047511846 -0.038474984 0.051776864 0.011784181 -0.013117042 0.012118233 0.023380777
0.0018898435 0.013094508 -0.031816836 -0.026845748 0.05319084 0.046028595 0.02037256 -0.054148257
-0.047451943 0.008717456 -0.0022104161 0.019552449 -0.042263657 -0.012619211 0.021117218 -0.027797507
-0.05073837 0.0429377 -0.028117625 0.03254309 0.009736466 0.020808287 0.067974694 0.07919496
-0.033062223 0.043423805 -0.11175666 -0.0056589837 -0.036827527 -0.022339452 -0.0057644057 -0.04450812
-0.038822934 -0.00036246495 0.048364837 0.025837395 0.01106666 -0.02613033 0.044450693 0.08135958
-0.06098023 0.03896359 -0.023801424 0.011035863 -0.051702186 -0.083627224 -0.049016003 0.05713737
0.044718254 -0.056002356 0.05613138 -0.07166362 0.06202341 -0.058440052 0.028927157 0.037361473
0.010643865 -0.010402881 -0.0495784 0.090977766 -0.00404723 0.061137367 0.026397672 0.029199516
0.020537205 -0.035759803 0.07343989 -0.03127178 -0.04344695 0.023884615 0.01558039 -0.018088857
0.013209906 0.03441942 0.0054786284 0.027004462 -0.07472061 0.044474494 -0.008045972 0.08581723
0.028982611 -0.01970752 -0.049590938 0.06757864 -0.09654831 -0.09689499 0.035297003 0.030783169
-0.027166497 0.06807505 0.05354708 -0.058211666 0.0071089147 0.0586338 0.03161608 0.016847525
0.009006215 -0.008987118 0.019202529 0.058420166 -0.08029916 -0.058004096 0.024881931 0.013959784
0.08421328 0.016794985 -0.11118729 0.048429415 0.024739392 0.022151208 -0.0067545045 0.0016012469
0.028059155 0.049569372 0.037021056 -0.011171058 0.07116319 0.020403342 -0.057941377 -0.008406941
-0.017801378 -0.03549918 0.0046231216 -0.006702046 0.00955833 -0.045783386 -0.034431618 -0.032719642
-0.025664596 -0.06278941 0.037399866 0.0032626237 -0.01096591 0.07079134 -0.02815227 -0.07692137
0.055524077 -0.035154458 0.056241184 -0.034358688 -0.055831037 0.058884364 -0.030488687 -0.005308999
-0.032143373 -0.023371741 0.021907818 -0.018796442 -0.038653165 -0.035272084 0.03407748 0.013668718
00000000: 7f04 0cbd a0d9 fbbc c965 7a3a 565e 9f3b
00000010: 83ca 713b 7858 293d ec74 1e3c 41ce 003d
00000020: a027 993d dba7 ef3c 34de e8bc 08e8 38bd
00000030: 61a8 863c 0246 8bbd b0b3 cc3c 27af af3c
00000040: d401 33bd db96 10bd 49bb 9ebc 7609 413d
00000050: 1add 583b a0c1 ed3c 7edf 54bd c736 3fbd
00000060: 9d19 a2bc a27b 7ebc 16fd 5abc e6ca 76bd
00000070: 9fbe 48bd f8b0 9cbd 398a 4cbd 8e28 1d3d
00000080: 133e 52bc 1405 a2bd 91eb bfbc a5d6 473c
00000090: d21d 13bd f58b 82bc 3054 adbc c0b9 b4bc
000000a0: 3394 9bbc 83d7 753c e9d3 7c3c 2115 8bbc
000000b0: 423a 8bbc 9bb3 5a3d cb6f 38bc 6514 c9bd
000000c0: ebf1 63bd 13d8 7f3d 91ef 0bbd 20cf c6bc
000000d0: be94 11bd 674e dc3c 592a b13d b15a 74bd
000000e0: 372d e23c 0de4 893d 9887 efbc 6e7b 0c3d
000000f0: 20a3 a9bd 3ed2 a6bd 12a7 7839 48a2 4f3c
00000100: d5a0 a83b 8a10 f63c 5cf6 a43c e3ca 30bd
00000110: 8431 053c e213 2c3d 2d32 91bb 2606 15bc
00000120: 360c b33b cc67 e2bc db0c 793d 9f8a cb3b
00000130: de16 7bbd d892 4ebc b37c 1cbd 96e4 693d
00000140: 9955 503d 2633 f9bc 2ed7 57bd 7fff 9a3d
00000150: 5120 1bbd fadf 20bd d6d3 85bd 4120 55bd
00000160: a542 c9bc cf02 f3bc 4dbf e33a 2067 373c
00000170: 6a42 5dbd 9459 2c3b 8ecd 52bc 8c1a 823d
00000180: 437f a43c c89b 42bd f297 1dbd fa13 543d
00000190: 7012 413c dde8 56bc 8e8b 463c 0b89 bf3c
000001a0: a0b4 f73a 598a 563c 5f52 02bd 9deb dbbc
000001b0: a3de 593d 7b88 3c3d 5be4 a63c 90ca 5dbd
000001c0: f85c 42bd a9d3 0e3c a1dc 10bb 752c a03c
000001d0: a81c 2dbd cfc0 4ebc 04fe ac3c 99b7 e3bc
000001e0: 09d3 4fbd 71df 2f3d ef56 e6bc e74b 053d
000001f0: b385 1f3c 2476 aa3c 5136 8b3d f830 a23d
00000200: 416c 07bd 29dd 313d ade0 e4bd ff6e b9bb
00000210: 76d8 16bd 3a01 b7bc 57e3 bcbb 254e 36bd
00000220: cc04 1fbd 3909 beb9 351a 463d f2a8 d33c
00000230: f050 353c 460f d6bc ee11 363d da9f a63d
00000240: 68c6 79bd 4998 1f3d 34fb c2bc c4cf 343c
00000250: acc5 53bd c044 abbd 01c5 48bd e008 6a3d
00000260: 7d2a 373d ba62 65bd 05ea 653d 60c4 92bd
00000270: 420c 7e3d d65e 6fbd a5f8 ec3c 5808 193d
00000280: 9b63 2e3c d870 2abc b812 4bbd 8d52 ba3d
00000290: a09e 84bb 2d6b 7a3d ee3f d83c d333 ef3c
000002a0: a43d a83c df78 12bd a767 963d d716 00bd
000002b0: 6ef5 31bd aba9 c33c e444 7f3c 152f 94bc
000002c0: 5d6e 583c 61fb 0c3d 1186 b33b 7638 dd3c
000002d0: 1f07 99bd e32a 363d 41d3 03bc f2c0 af3d
000002e0: f16c ed3c aa71 a1bc de1f 4bbd ac66 8a3d
000002f0: 1fbb c5bd e170 c6bd 9793 103d fc2c fc3c
00000300: 468c debc ef6a 8b3d 2f54 5b3d 5b6f 6ebd
00000310: e6f1 e83b ff29 703d dd7f 013d d203 8a3c
00000320: ce8e 133c b43e 13bc 9f4e 9d3c fc49 6f3d
00000330: e373 a4bd b495 6dbd 31d5 cb3c 94b7 643c
00000340: 0378 ac3d a395 893c 29b6 e3bd ec5d 463d
00000350: 44aa ca3c 7376 b53c e454 ddbb eee0 d13a
00000360: 50dc e53c 4109 4b3d 64a3 173d d006 37bc
00000370: 02be 913d e924 a73c f053 6dbd 44bd 09bc
00000380: 32d4 91bc 9767 11bd 8e7d 973b d69c dbbb
00000390: 8b9a 1c3c 5c87 3bbd 2b08 0dbd 0805 06bd
000003a0: 8f3e d2bc bc97 80bd 9a30 193d bed1 553b
000003b0: 5caa 33bc 0dfb 903d 979f e6bc f488 9dbd
000003c0: 376d 633d 1ffe 0fbd 285d 663d b2bb 0cbd
000003d0: 16af 64bd bb30 713d 69c3 f9bc 1df7 adbb
000003e0: c5a8 03bd 1876 bfbc 0678 b33c fffa 99bc
000003f0: c852 1ebd 7679 10bd d494 0b3d c2f2 5f3c

arith.constant10 f4 [2, 32]
0.32716975 -0.35150245 0.4231493 0.37227005 0.2148312 0.06590473 -0.037551023 0.34805438
-0.20052661 -0.35513252 -0.13692917 0.035955384 -0.3222239 0.27569887 -0.063908555 0.3813513
-0.0279924 0.37024143 0.016962685 0.313506 -0.029386226 0.34945467 -0.2858209 -0.051339786
-0.10453259 0.113419145 0.38936856 0.10866299 -0.3421917 -0.06250957 -0.06746159 0.112077616
-0.08847589 0.24749991 -0.2972079 0.06676213 -0.41197035 -0.18967094 -0.2553267 -0.36385468
-0.34503555 0.35005873 0.28597623 0.10843397 0.28731397 -0.08334177 -0.14394897 -0.2036188
-0.0586546 -0.40908015 -0.08520172 -0.38039297 -0.3861236 0.46199313 -0.382688 -0.34467995
0.14303923 -0.31146854 0.16902515 0.27278236 -0.043087106 -0.30417508 -0.18745206 0.0317998
00000000: cb82 a73e 21f8 b3be 06a7 d83e 2e9a be3e
00000010: b6fc 5b3e 0ff9 863d 1acf 19bd 2f34 b23e
00000020: d956 4dbe eed3 b5be 2937 0cbe f445 133d
00000030: 88fa a4be 6728 8d3e 7de2 82bd 7a40 c33e
00000040: 5150 e5bc 4990 bd3e 54f5 8a3c dc83 a03e
00000050: 62bb f0bc b9eb b23e 1e57 92be ab49 52bd
00000060: 2f15 d6bd 4c48 e83d 515b c73e b48a de3d
00000070: c033 afbe 0405 80bd 4d29 8abd f388 e53d
00000080: d932 b5bd 9e70 7d3e a22b 98be 95ba 883d
00000090: c7ed d2be 1939 42be 2eba 82be 294b babe
000000a0: 80a8 b0be e63a b33e 7a6b 923e a112 de3d
000000b0: d11a 933e 17af aabd 5c67 13be 7281 50be
000000c0: ce3f 70bd f472 d1be 3d7e aebd dec2 c2be
000000d0: feb1 c5be 5d8a ec3e aeef c3be e479 b0be
000000e0: e078 123e ce78 9fbe ee14 2d3e 21aa 8b3e
000000f0: 1b7c 30bd d6bc 9bbe 6ff3 3fbe 8240 023d

arith.constant11 f4 [32, 64]
-0.07091433 0.10363192 0.22615993 -0.09155173 -0.16413434 0.15697853 -0.023611903 0.11834985
-0.1221227 -0.09429643 -0.115421295 0.24144103 -0.23667248 -0.22912778 0.1623863 0.03924588
-0.2281416 0.18149173 -0.010049343 -0.052745834 -0.016932905 -0.104821324 0.03329849 -0.112651646
0.06472701 -0.1801222 -0.10042149 0.184794 0.12216556 -0.19951499 -0.17097624 -0.23671097
0.2306624 0.17342621 -0.09338009 0.17276971 0.009628236 0.14310473 0.097903185 0.17416184
-0.10688132 -0.18446264 0.15424907 0.19302994 0.049479127 0.23654588 0.20524979 -0.06800526
-0.030792117 -0.12204301 -0.17454109 0.043502927 0.08430909 0.0999181 -0.13266595 -0.070424885
-0.18360454 0.2404283 0.20857105 0.024868524 0.1313374 0.14735383 -0.09343057 0.17452973
0.110304356 0.16552636 0.13525875 0.13924804 0.117217004 0.09474191 0.046187878 0.20615396
-0.25161684 -0.06564471 0.028021574 0.2135723 -0.15121816 -0.2116332 -0.08337407 0.24255227
-0.04696069 -0.02800155 0.1792022 0.06359146 -0.12320423 0.08366225 0.011247876 0.18403769
0.22377872 -0.2270998 0.012976588 0.105713494 -0.08885496 -0.05031057 -0.029038923 0.026111461
0.049115717 -0.15880108 0.11545891 0.062788025 0.28566393 0.037783716 0.2613059 -0.23357996
-0.07707758 0.095780164 0.09936792 -0.06302181 -0.08412882 -0.10529079 0.085277006 0.15413815
0.2276904 -0.21415123 0.007888612 0.3311604 -0.17142205 -0.08983627 0.019416608 -0.08162973
0.18795557 0.23210551 -0.12955707 0.18653037 -0.11880446 -0.06996388 0.13632517 -0.15984124
-0.17056018 0.26679325 0.20292449 0.17553842 -0.21926022 -0.1755764 0.016073048 -0.0031199786
-0.088543326 -0.0076077734 0.010445416 0.08484745 -0.08841742 -0.064468354 -0.21157075 -0.14502306
0.17244732 -0.14873126 -0.057032526 0.18626967 -0.110468924 0.10489326 -0.16517922 -0.16103429
-0.05507201 0.23128593 -0.09175412 0.14134008 -0.19456473 -0.0044961697 -0.014121113 0.10092256
-0.1626203 -0.22288844 0.22400644 -0.22783445 0.14527398 -0.2289427 -0.26004824 0.19332083
0.06854306 0.1565223 -0.14346021 0.17947823 0.18485528 -0.09840215 -0.14527698 0.17871286
-0.16923648 0.28250477 0.23644252 -0.036543075 -0.10660401 -0.09111289 0.13589123 -0.0037783405
-0.042011797 -0.0694663 0.20098858 0.04554062 0.0700559 -0.09358759 -0.027495954 -0.030406296
0.16799653 0.18292987 0.020746768 -0.009516151 -0.21920238 0.11247121 -0.22141969 0.14586234
-0.09068737 0.06633094 0.13118881 -0.18497793 -0.11007915 0.035992153 0.03391683 0.13930294
-0.14505585 0.03681015 0.12340611 -0.14217936 -0.13214016 0.002857983 -0.0058943033 0.23007944
0.18008947 -0.13398454 0.16788805 0.16187263 -0.0663389 -0.16885865 -0.08928649 -0.21167569
0.107064486 0.18148826 -0.19556838 0.0011848347 -0.20914656 0.03693664 -0.13238232 0.20379204
-0.23066771 0.08195869 0.09758508 -0.16068153 -0.24599439 -0.076514 0.2520659 0.0917376
0.20865333 -0.14874166 -0.077669136 0.089512825 0.004494071 0.1876726 -0.1973726 0.078768335
0.11981732 -0.21084946 -0.18294172 -0.075316764 0.2005189 -0.08077024 0.12673546 -0.0884822
00000000: 883b 91bd f93c d43d 7896 673e 797f bbbd
00000010: d512 28be fbbe 203e c06d c1bc 6861 f23d
00000020: 771b fabd 7d1e c1bd 0062 ecbd 513c 773e
00000030: 455a 72be 79a0 6abe 9848 263e 4ac0 203d
00000040: f49d 69be f8d8 393e 00a6 24bc 040c 58bd
00000050: e0b6 8abc 90ac d6bd ff63 083d e8b5 e6bd
00000060: 988f 843d f471 38be c8a9 cdbd a33a 3d3e
00000070: f031 fa3d a84d 4cbe 6514 2fbe 5c64 72be
00000080: c432 6c3e a496 313e 103e bfbd 8bea 303e
00000090: c0bf 1d3c 0c8a 123e 7781 c83d 7b57 323e
000000a0: 98e4 dabd c6e3 3cbe 78f3 1d3e a4a9 453e
000000b0: a0aa 4a3d 1539 723e 002d 523e 5746 8bbd
000000c0: c03f fcbc b0f1 f9bd e6ba 32be 2030 323d
000000d0: 3faa ac3d dca1 cc3d 95d9 07be ec3a 90bd
000000e0: d402 3cbe d632 763e a693 553e 13b9 cb3c
000000f0: 507d 063e ece3 163e 8758 bfbd ecb7 323e
00000100: 40e7 e13d be7f 293e 4581 0a3e 0a97 0e3e
00000110: 780f f03d 0c08 c23d 802f 3d3d 061a 533e
00000120: ecd3 80be bc70 86bd 808d e53c b2b2 5a3e
00000130: efd8 1abe 60b6 58be 06c0 aabd 9f5f 783e
00000140: da59 40bd 8263 e5bc c880 373e 3d3c 823d
00000150: 8052 fcbd 1d57 ab3d 0349 383c 6074 3c3e
00000160: 4026 653e da8c 68be c19b 543c 5180 d83d
00000170: 97f9 b5bd 7512 4ebd 09e3 edbc b4e7 d53c
00000180: 902d 493d c09c 22be b975 ec3d 0297 803d
00000190: 8b42 923e 19c3 1a3d e3c9 853e 962f 6fbe
000001a0: dada 9dbd 6428 c43d 6881 cb3d 9411 81bd
000001b0: bb4b acbd b3a2 d7bd b6a5 ae3d 64d6 1d3e
000001c0: ac27 693e 764a 5bbe 3d3f 013c db8d a93e
000001d0: 4389 2fbe 14fc b7bd 940f 9f3c 7d2d a7bd
000001e0: 6d77 403e 11ad 6d3e 9caa 04be d101 3f3e
000001f0: c14f f3bd 3949 8fbd d398 0b3e 6cad 23be
00000200: 54a7 2ebe 2099 883e 70cb 4f3e 58c0 333e
00000210: c085 60be 4dca 33be a0ab 833c 8e78 4cbb
00000220: 3456 b5bd a14a f9bb 4023 2b3c 80c4 ad3d
00000230: 3114 b5bd fc07 84bd 01a6 58be ed80 14be
00000240: 0896 303e 024d 18be f09a 69bd 7abd 3e3e
00000250: 883d e2bd 47d2 d63d be24 29be 2ce6 24be
00000260: 3093 61bd 38d6 6c3e 96e9 bbbd 74bb 103e
00000270: fa3b 47be 9b54 93bb 3e5c 67bc 7db0 ce3d
00000280: f085 26be de3c 64be f261 653e 6f4d 69be
00000290: b4c2 143e f56f 6abe 0b25 85be e5f5 453e
000002a0: 4e60 8c3d 6247 203e 3ce7 12be 24c9 373e
000002b0: b44a 3d3e 1187 c9bd 7dc3 14be 8100 373e
000002c0: 544c 2dbe 77a4 903e fd1d 723e 31ae 15bd
000002d0: 3453 dabd 6599 babd 1227 0b3e 099e 77bb
000002e0: 9014 2cbd 5944 8ebd f3cf 4d3e cd88 3a3d
000002f0: 7879 8f3d daaa bfbd 323f e1bc a016 f9bc
00000300: 4807 2c3e f851 3b3e 20f5 a93c a1e9 1bbc
00000310: 9776 60be 4e57 e63d d8bb 62be f05c 153e
00000320: 4dba b9bd 84d8 873d 5c56 063e db6a 3dbe
00000330: 2d71 e1bd 826c 133d 60ec 0a3d 6ea5 0e3e
00000340: 8589 14be 3dc6 163d 58bc fc3d 7797 11be
00000350: c04f 07be 004d 3b3b 0025 c1bb f299 6b3e
00000360: 6069 383e 3e33 09be d8ea 2b3e f0c1 253e
00000370: b0dc 87bd 48e9 2cbe d6db b6bd 83c1 58be
00000380: a044 db3d 0fd8 393e 1443 48be 754c 9b3a
00000390: 842a 56be e04a 173d 3b8f 07be dcae 503e
000003a0: 2834 6cbe f5d9 a73d b0da c73d b389 24be
000003b0: f4e5 7bbe 5fb3 9cbd c80e 813e ece0 bb3d
000003c0: 38a9 553e bc4f 18be ff10 9fbd 8052 b73d
000003d0: 0043 933b 3f2d 403e 0b1c 4abe 4b51 a13d
000003e0: c862 f53d ece8 57be 1355 3bbe ad3f 9abd
000003f0: d454 4d3e de6a a5bd f1c6 013e 2836 b5bd

arith.constant12 f4 [64, 128]
-0.111511625 -0.073517844 0.11533056 0.14787672 -0.13175593 0.052055612 -0.011566654 -0.05111271
-0.024269626 -0.17304008 -0.11836538 0.13516115 0.10750742 -0.065984346 -0.026781455 0.13244419
0.014394924 -0.11495907 0.05218184 -0.049356535 -0.15416567 -0.050870866 0.12680255 0.017479852
0.049857825 -0.02983731 0.14046209 -0.049358264 -0.059064843 -0.096990645 0.0096993 0.15013273
-0.07775031 -0.015237644 -0.16605677 -0.07465269 -0.16446969 0.10450922 0.0045035183 0.07907663
-0.06236743 0.14723252 0.15077849 0.13312449 0.12939502 0.03260763 -0.12590885 0.0015582144
0.013965651 -0.10699913 0.050681964 0.0358759 -0.056124642 0.17672674 -0.036481306 -0.023211703
-0.02454792 -0.0174506 0.06997469 0.020649254 0.14062305 -0.143245 -0.050534323 0.17360641
-0.010926366 -0.069586806 -0.06970756 -0.085958496 0.061402142 -0.08209784 -0.13754396 0.13760306
0.04704933 -0.08283398 0.13422887 0.12331645 -0.0732956 -0.15956809 0.16125105 -0.08587231
-0.07368997 -0.02895476 0.04297483 -0.009528145 0.049779937 -0.04726465 -0.16140012 -0.038093284
0.08851828 -0.08080938 0.032333583 0.055629537 -0.007883698 -0.17036708 -0.06463843 -0.17153654
-0.0670534 -0.021863207 -0.018442318 -0.009144977 0.04069501 -0.17245461 -0.02338475 0.10855414
0.0018332601 -0.04195331 -0.12897934 -0.0026671737 -0.07787739 -0.12110488 0.11325954 -0.17440028
0.048391327 0.025881916 -0.1065796 -0.049129605 0.04322362 -0.11140571 -0.17330422 0.14847587
0.12210141 0.08850901 0.019231737 -0.11972487 0.0053637773 0.009524852 -0.05977755 -0.12402089
-0.08551641 0.020146748 -0.13152646 -0.13860261 -0.09085937 0.011282839 -0.16192336 -0.0229491
-0.028901631 -0.0037532675 0.039433923 -0.13712616 0.12993382 0.11615872 0.16273852 0.054724243
-0.100164756 -0.036399346 0.111816816 -0.1652075 0.12060218 -0.029874632 -0.086920515 -0.18917817
0.017287664 0.069608115 -0.14986941 -0.08242475 0.09285855 0.16559504 0.10995474 -0.06677043
0.07599598 -0.08469508 0.038357966 0.04101551 -0.036332108 0.100830406 0.048485752 0.13651048
-0.16606101 -0.1615895 0.111757375 -0.18079619 -0.012842519 -0.10660937 -0.15907975 -0.15323515
-0.018620394 -0.10598748 -0.12217125 0.06602414 -0.04256449 -0.188015 -0.09280058 -0.10488186
-0.15606566 0.1359637 0.030310705 0.121450394 -0.10230446 -0.1178643 -0.08154191 -0.105119124
0.0024203379 -0.005272691 0.112286374 0.07546169 0.07694642 -0.18960086 -0.058661163 -0.06120303
-0.046794172 -0.1374302 0.010504529 -0.035022043 0.0037995612 0.17263302 0.18016367 0.009205486
0.12986097 0.1507145 -0.08628416 0.013720641 0.16223598 0.014809407 -0.022473302 -0.070443735
-0.10389039 0.017799996 0.10757613 0.02406351 0.060110763 0.1434662 0.05390295 0.10098252
-0.021293398 -0.11881677 0.03866008 -0.039311104 -0.08651965 -0.05905415 0.070294544 0.11487881
-0.07513365 -0.15557526 0.1361403 -0.109675325 0.10656577 0.08009122 0.026838684 -0.18133341
0.052677616 0.09514535 0.068198286 0.002902478 -0.0018288383 -0.072977774 0.17773351 0.09489844
-0.11931455 0.15818681 0.10885592 -0.02012585 0.02748591 0.05194063 -0.02073574 -0.13218239
00000000: 3560 e4bd 8690 96bd 6e32 ec3d ff6c 173e
00000010: 07eb 06be 4438 553d 1082 3dbc 905b 51bd
00000020: 18d1 c6bc 6b31 31be 8c69 f2bd af67 0a3e
00000030: da2c dc3d cd22 87bd c864 dbbc 739f 073e
00000040: b0d8 6b3c a96f ebbd a0bc 553d 142a 4abd
00000050: 9bdd 1dbe f85d 50bd 87d8 013e e831 8f3c
00000060: b837 4c3d 606d f4bc 4bd5 0f3e e42b 4abd
00000070: faed 71bd 08a3 c6bd d0e9 1e3c 65bc 193e
00000080: 8e3b 9fbd 50a7 79bc c90a 2abe 82e3 98bd
00000090: be6a 28be ee08 d63d 4092 933b eef2 a13d
000000a0: fe74 7fbd 1fc4 163e ad65 1a3e c951 083e
000000b0: 2180 043e 948f 053d 40ee 00be 003d cc3a
000000c0: 30d0 643c 5c22 dbbd e497 4f3d 9cf2 123d
000000d0: f4e2 65bd dbf7 343e 6c6d 15bd 7826 bebc
000000e0: b818 c9bc 90f4 8ebc e44e 8f3d a028 a93c
000000f0: 7dff 0f3e d1ae 12be 14fd 4ebd e1c5 313e
00000100: 8004 33bc 8783 8ebd d6c2 8ebd 020b b0bd
00000110: d080 7b3d ea22 a8bd 53d8 0cbe d1e7 0c3e
00000120: ccb6 403d dda4 a9bd 4b73 093e 568d fc3d
00000130: 011c 96bd d165 23be ff1e 253e d2dd afbd
00000140: c4ea 96bd 8832 edbc 6006 303d f01b 1cbc
00000150: 0ce6 4b3d 9498 41bd 1346 25be b407 1cbd
00000160: 1249 b53d 637f a5bd 3870 043d ccdb 633d
00000170: a02a 01bc b574 2ebe 2761 84bd 46a7 2fbe
00000180: 4b53 89bd 781a b3bc 5814 97bc d0d4 15bc
00000190: d0af 263d f197 30be 6091 bfbc a251 de3d
000001a0: 004a f03a 3cd7 2bbd 2913 04be c0cb 2ebb
000001b0: 2e7e 9fbd d605 f8bd 9ef4 e73d fd95 32be
000001c0: fc35 463d 5006 d43c 6846 dabd 203c 49bd
000001d0: 400b 313d ad28 e4bd a976 31be 0f0a 183e
000001e0: 4e10 fa3d 3644 b53d e08b 9d3c 5032 f5bd
000001f0: a0c2 af3b 200e 1c3c 4ed9 74bd aafe fdbd
00000200: 3a23 afbd cb0a a53c dfae 06be d8ed 0dbe
00000210: 7a14 babd a8db 383c 3dcf 25be c0ff bbbc
00000220: 1dc3 ecbc 61f9 75bb 7785 213d cd6a 0cbe
00000230: 5f0d 053e 9fe4 ed3d eda4 263e 8726 603d
00000240: 2e23 cdbd 7b17 15bd 3700 e53d 282c 29be
00000250: 47fe f63d a5bb f4bc 6203 b2bd ecb7 41be
00000260: dc9e 8d3c b38e 8e3d 5e77 19be 4fce a8bd
00000270: a02c be3d bf91 293e f32f e13d efbe 88bd
00000280: c8a3 9b3d 9d74 adbd 3e1d 1d3d e1ff 273d
00000290: fad0 14bd 2c80 ce3d ff98 463d 67c9 0b3e
000002a0: e60b 2abe b877 25be 0de1 e43d a322 39be
000002b0: 6e69 52bc 0356 dabd cde5 22be ade9 1cbe
000002c0: cc89 98bc f70f d9bd ec34 fabd aa37 873d
000002d0: 1a58 2ebd 0187 40be 3b0e bebd 4dcc d6bd
000002e0: adcf 1fbe 113a 0b3e 284e f83c fcba f83d
000002f0: 0085 d1bd d762 f1bd 72ff a6bd b248 d7bd
00000300: 889e 1e3b 8ac6 acbb 66f6 e53d a98b 9a3d
00000310: 1696 9d3d ba26 42be b046 70bd 07b0 7abd
00000320: 3fab 3fbd 81ba 0cbe 301b 2c3c 4673 0fbd
00000330: 0f02 793b b6c6 303e d37c 383e 9bd2 163c
00000340: 46fa 043e e754 1a3e c0b5 b0bd 8acc 603c
00000350: 3021 263e 28a3 723c ee19 b8bc ce44 90bd
00000360: 7cc4 d4bd 4cd1 913c e050 dc3d d720 c53c
00000370: b436 763d cee8 123e 57c9 5c3d eccf ce3d
00000380: 7e6f aebc 3556 f3bd 085a 1e3d ae04 21bd
00000390: 3731 b1bd c4e2 71bd 96f6 8f3d 9545 eb3d
000003a0: acdf 99bd 1f4f 1fbe 5d68 0b3e 759d e0bd
000003b0: 283f da3d de06 a43d cddc db3c 77af 39be
000003c0: 7cc4 573d 91db c23d 8bab 8b3d 8037 3e3b
000003d0: a1b5 efba 5f75 95bd c6ff 353e 1d5a c23d
000003e0: 305b f4bd b9fb 213e daef de3d f7de a4bc
000003f0: 222a e13c b3bf 543d 00de a9bc d25a 07be

arith.constant13 f4 [128, 128]
0.11231998 -0.05378226 0.03128755 0.17978498 0.09912426 0.11044066 0.09201661 0.1333736
0.027556337 -0.09705406 -0.13675907 0.06341068 0.14566223 0.16113584 -0.033521637 -0.024682958
0.075217 -0.0374905 0.0526684 -0.039169684 0.03608141 0.114591226 -0.12452656 0.10386562
0.16118835 -0.02166934 -0.14955814 0.049926706 -0.027057229 0.0033827375 -0.1194739 -0.058900084
-0.12751783 0.054869946 0.12960182 0.14001442 -0.12012263 0.10169933 0.037183437 0.15396568
-0.10721546 0.083621144 -0.00037947984 -0.10514207 0.070724376 -0.027373211 0.03245394 0.013702899
0.11415555 -0.07854452 -0.03441044 0.15036343 0.078175694 0.031162009 0.12845346 -0.031949434
-0.13013415 0.044843245 -0.13573192 -0.025298731 0.12205965 -0.032834314 -0.08300932 0.11640725
0.15571046 0.15797004 -0.06536714 0.13467251 0.09275568 0.0009505275 -0.09819746 0.042486586
0.02634504 -0.074536376 -0.1465637 -0.0982127 -0.05010565 -0.08177158 0.14962585 -0.12731132
-0.11358923 0.03418976 -0.12366816 -0.087033845 -0.09347935 0.023567041 0.028864516 -0.032882612
0.07848889 0.09452315 -0.015935855 0.031679176 0.17488512 -0.06420861 0.003386052 0.06330147
0.006662596 0.010941939 -0.06709354 0.037305247 -0.07705929 0.049458757 -0.1360057 -0.1331317
0.08931481 0.018745292 0.011550676 -0.029772792 0.0480508 0.013054554 0.04676488 -0.054390043
-0.010471334 -0.12072082 -0.11629782 0.08777321 0.15842657 0.09530311 -0.05571392 0.107722126
-0.105039105 0.095546685 0.069735 -0.061831776 0.057801444 -0.16899891 -0.06548251 0.10191305
0.13153921 -0.108090036 -0.076604955 0.013202487 -0.11978241 -0.059715305 0.10227142 0.15450236
0.052439034 0.15787469 0.04533767 -0.11916801 0.17895804 0.12716009 -0.017469736 0.14617099
0.14652295 0.14294338 -0.085778415 -0.15710323 0.07487404 0.0804059 0.10849327 -0.13507275
0.055124797 0.011539798 0.088127516 -0.03159191 0.15141344 -0.13434935 -0.123258516 -0.03187475
-0.05128316 0.056894306 -0.0064626457 -0.0040494814 -0.121066734 0.11279905 0.13698116 0.012744417
-0.123883806 -0.11368972 -0.025202228 -0.10183584 0.0018193069 0.11769261 0.14119713 0.0056573115
0.007008206 -0.021714741 0.13558114 0.005176416 -0.02992409 -0.11257807 -0.006938141 -0.08759499
-0.023226125 0.096405685 0.04465893 0.13508925 -0.1243484 -0.020763062 -0.10254374 0.10289562
-0.06381542 -0.12211852 -0.11231268 0.07470794 0.13023052 0.10171325 0.010221137 0.12659222
-0.12998475 0.09716113 0.10164917 0.09604147 -0.10973125 -0.03836685 -0.07637599 0.094744876
0.11472837 -0.117751256 0.019467015 0.12061583 0.018876934 -0.044595502 0.022686295 0.11288695
0.1504356 0.10305302 -0.11633994 0.14019649 0.075307205 0.001847077 0.084130034 0.002602576
0.13852735 0.12864272 0.1617484 -0.031490065 0.14188132 0.06319901 -0.12892985 0.046726424
-0.09737717 -0.07702096 0.11812788 -0.10079531 0.122244544 -0.101746574 -0.114633426 0.12170197
0.026417503 -0.043076806 -0.11769993 -0.10709934 0.12801956 0.08548472 0.0177949 0.04092126
0.12112096 -0.023507964 -0.03526908 0.051145 -0.089862145 -0.06690734 0.114287175 -0.0024141811
00000000: 0508 e63d c94a 5cbd 6027 003d 8e19 383e
00000010: a901 cb3d b62e e23d 3473 bc3d 1793 083e
00000020: d4bd e13c 47c4 c6bd 920a 0cbe 75dd 813d
00000030: 7b28 153e cb00 253e fc4d 09bd ea33 cabc
00000040: 5f0b 9a3d a38f 19bd d2ba 573d 6470 20bd
00000050: 1aca 133d ceae ea3d c807 ffbd 80b7 d43d
00000060: 8f0e 253e e683 b1bc c525 19be f27f 4c3d
00000070: 1fa7 ddbc ebb0 5d3b bbae f4bd 3741 71bd
00000080: 0994 02be 4fbf 603d 57b6 043e f15f 0f3e
00000090: da02 f6bd bd47 d03d a94d 183d 2ea9 1d3e
000000a0: c793 dbbd 9041 ab3d ecf4 c6b9 ba54 d7bd
000000b0: f1d7 903d c93d e0bc 6cee 043d 2082 603c
000000c0: 63ca e93d f3db a0bd f6f1 0cbd dff8 193e
000000d0: 941a a03d 7847 ff3c 4e89 033e 69dd 02bd
000000e0: e341 05be 8dad 373d 4ffd 0abe 493f cfbc
000000f0: 69fa f93d 467d 06bd ca00 aabd ed66 ee3d
00000100: 9072 1f3e e6c2 213e 35df 85bd 97e7 093e
00000110: b1f6 bd3d d22c 793a c01b c9bd 6a06 2e3d
00000120: 8ed1 d73c 87a6 98bd cb14 16be bd23 c9bd
00000130: 953b 4dbd dc77 a7bd 8537 193e e65d 02be
00000140: 78a1 e8bd 900a 0c3d bb45 fdbd cd3e b2bd
00000150: 1a72 bfbd ab0f c13c 4775 ec3c ebaf 06bd
00000160: c8be a03d 5a95 c13d e98b 82bc 06c2 013d
00000170: 1615 333e ce7f 83bd 87e8 5d3b 33a4 813d
00000180: e851 da3b d245 333c 5768 89bd 63cd 183d
00000190: 43d1 9dbd 4495 4a3d 1445 0bbe ad53 08be
000001a0: afea b63d ba8f 993c 0c3f 3d3c 12e6 f3bc
000001b0: ead0 443d c5e2 553c 888c 3f3d 18c8 5ebd
000001c0: f58f 2bbc 7a3c f7bd 8d2d eebd 71c2 b33d
000001d0: 933a 223e 472e c33d 4834 64bd 6b9d dc3d
000001e0: be1e d7bd fbad c33d 39d1 8e3d 5143 7dbd
000001f0: 35c1 6c3d 0d0e 2dbe b21b 86bd cab7 d03d
00000200: 37b2 063e 4f5e ddbd 0fe3 9cbd 3e4f 583c
00000210: 7b50 f5bd 0998 74bd ae73 d13d de35 1e3e
00000220: 50ca 563d e7a9 213e feb3 393d 5c0e f4bd
00000230: c740 373e 4136 023e b11c 8fbc d9ad 153e
00000240: 1d0a 163e c05f 123e 98ac afbd abdf 20be
00000250: 9057 993d d9ab a43d b831 de3d 8350 0abe
00000260: 8aca 613d 6c11 3d3c 337c b43d 8566 01bd
00000270: 200c 1b3e e092 09be f66e fcbd 198f 02bd
00000280: 4a0e 52bd 010a 693d 9ac4 d3bb 83b1 84bb
00000290: d6f1 f7bd 3003 e73d ca44 0c3e f6cd 503c
000002a0: cbb6 fdbd 28d6 e8bd e774 cebc 4f8f d0bd
000002b0: cf75 ee3a d308 f13d fb95 103e f860 b93b
000002c0: 18a5 e53b 1de3 b1bc c8d5 0a3e ed9e a93b
000002d0: 5d23 f5bc 558f e6bd 5859 e3bb 0165 b3bd
000002e0: b744 bebc 5870 c53d 48ec 363d d654 0a3e
000002f0: 60aa febd 4c17 aabc 7402 d2bd f0ba d23d
00000300: a9b1 82bd 4619 fabd 3104 e6bd 7a00 993d
00000310: 265b 053e 094f d03d 8e76 273c 64a1 013e
00000320: b91a 05be 6afc c63d 712d d03d 64b1 c43d
00000330: c7ba e0bd 8f26 1dbd 046b 9cbd 9a09 c23d
00000340: b5f6 ea3d 9227 f1bd 4a79 9f3c 6f05 f73d
00000350: cda3 9a3c c6a9 36bd 9cd8 b93c 4631 e73d
00000360: ca0b 1a3e 760d d33d a243 eebd ab8f 0f3e
00000370: aa3a 9a3d 9f19 f23a 5e4c ac3d fb8f 2a3b
00000380: 1dda 0d3e ebba 033e 5fa1 253e bafb 00bd
00000390: 5649 113e 7c6e 813d 3006 04be 3564 3f3d
000003a0: af6d c7bd 2abd 9dbd 08ed f13d c66d cebd
000003b0: 595b fa3d 8260 d0bd eec4 eabd e23e f93d
000003c0: 8569 d83c 4e71 30bd a90c f1bd e656 dbbd
000003d0: 8f17 033e 9d12 af3d 9cc6 913c 0d9d 273d
000003e0: 440e f83d c693 c0bc 5076 10bd 6b7d 513d
000003f0: a509 b8bd b706 89bd 650f ea3d 3d37 1ebb
