ImageClassifiersProject/app/src/main/assets/myfaceIdentifier.tflite (tflite, 534424 bytes, 16 tensors)

arith.constant f4 [32]
-0.0014641698 0.012524896 -0.006004892 0.0087009715 0.010157536 0.016553666 -0.0031878557 0.0067653526
-0.00425625 -0.012168312 0.00875817 -0.008478404 -0.008834027 0.011012518 -0.0060010236 0.00996281
-0.0060051554 0.008102444 0.010156012 0.004606923 0.00882626 0.0060017207 0.0102791535 -0.0033908442
-0.0045841103 -0.007699082 0.010933115 -0.010274859 -0.0058592814 0.0 0.0 0.0
00000000: 63e9 bfba 3935 4d3c afc4 c4bb 858e 0e3c
00000010: cb6b 263c 8e9b 873c 58eb 50bb e4af dd3b
00000020: 0378 8bbb 9a5d 47bc 6d7e 0f3c 01e9 0abc
00000030: 98bc 10bc d96d 343c 3ca4 c4bb 0e3b 233c
00000040: e5c6 c4bb 1dc0 043c 6765 263c acf5 963b
00000050: 059c 103c 15aa c43b e569 283c ed38 5ebb
00000060: 4e36 96bb 9548 fcbb cf20 333c e257 28bc
00000070: 37ff bfbb 0000 0000 0000 0000 0000 0000

arith.constant1 f4 [64]
0.008456446 -0.0038847325 0.010381457 -0.0070468457 0.0026229473 -0.0060039884 0.0063046287 0.013607456
0.0036503172 0.022265814 -0.007929992 0.013785188 -0.0009621947 -0.006005223 0.0056381677 -0.0033504087
0.012275147 -0.014166158 0.0044488125 -0.0065637203 -0.003608654 -0.010607013 0.0029607255 -0.0069843796
-0.0007862032 -1.0992126e-05 0.0 -0.003932371 -0.007594652 -0.01166914 -0.0061787674 0.009171957
0.0062999246 0.0039814287 0.0012422963 0.0 0.0 0.011428754 0.00817752 0.003979754
0.0011541414 0.0 -0.0035062311 0.012644932 -0.001619161 0.009255547 0.011820483 0.008491768
0.0 -0.0043524127 0.009917655 -0.0040782816 0.0048068007 -0.0026823187 -0.005291391 -0.008096558
-0.00023566646 -0.0060459883 -0.0066226264 -0.0057371343 0.0 0.0036733276 -0.0037115673 -0.0008579349
00000000: e88c 0a3c ff96 7ebb fd16 2a3c 3ae9 e6bb
00000010: c1e5 2b3b 1bbd c4bb 0f97 ce3b cff1 5e3c
00000020: 293a 6f3b cc66 b63c ccec 01bc 45db 613c
00000030: cb3b 7cba 76c7 c4bb 61c0 b83b 8892 5bbb
00000040: b31d 493c 2c19 68bc 58c7 913b 7a14 d7bb
00000050: 2b7f 6cbb 09c9 2dbc bb08 423b 39dd e4bb
00000060: 3419 4eba d26a 38b7 0000 0000 1edb 80bb
00000070: 8fdc f8bb ec2f 3fbc 4277 cabb fa45 163c
00000080: 996f ce3b a576 823b 8cd4 a23a 0000 0000
00000090: 0000 0000 ab3f 3b3c 01fb 053c 9968 823b
000000a0: 8f46 973a 0000 0000 ccc8 65bb b02c 4f3c
000000b0: 073a d4ba 94a4 173c b3aa 413c 0e21 0b3c
000000c0: 0000 0000 af9e 8ebb a97d 223c 1ba3 85bb
000000d0: 5e82 9d3b d7c9 2fbb 6863 adbb 6da7 04bc
000000e0: 3c1d 77b9 6d1d c6bb 9e02 d9bb 92fe bbbb
000000f0: 0000 0000 36bc 703b c43d 73bb 09e7 60ba

arith.constant2 f4 [128]
-0.0028961292 0.012124784 -0.0057838885 0.011795353 0.005173758 0.0060979174 0.012239608 -0.0065885643
0.0028873452 0.024218388 -0.0018262339 0.019750604 0.005819201 0.009483929 0.0 0.004128699
-0.0018725914 0.0042298 -0.003611896 -0.006484805 0.009608419 0.005075436 -0.007814733 -0.007095602
-0.0055094142 0.0024749127 0.006163045 0.006330791 0.0026176185 -0.002865499 -0.006592509 0.0016997897
0.0031101007 0.006004712 0.008325835 -0.00024843516 -0.0051985895 0.011128455 0.0016217739 0.016213737
0.0043031615 -0.00227521 0.010113087 0.0013365985 0.0002260672 -0.0057432754 -0.00503821 0.00050211826
0.004462143 0.00070832716 -0.01386252 0.012186878 0.0040568057 -0.002018358 0.0047343527 -0.021476498
-0.008431705 -0.00067038275 0.0 0.008618213 0.0030768134 -0.0017443867 0.0035192075 0.0036816995
-0.009320939 0.0040825494 -0.0028795006 -0.009842505 -0.007902179 -0.001153622 0.0038344685 -0.00600363
0.0 0.009559754 -0.004706939 0.0 0.0100301625 -0.0024265696 0.0 0.0
-0.0061978097 -0.0072742268 -0.0050554704 -0.0045001376 0.016980443 -0.002803665 0.0039410233 -0.007773807
-0.0016144355 0.0 0.0046751327 -0.005994754 -0.00955755 -0.005534491 -0.0028046865 0.0015244534
-0.0041241967 0.0019748576 -0.011764197 -0.0040643164 0.0 -0.0028879414 -0.0014766661 0.0030050634
-0.005073796 -0.0044667376 0.004074002 0.010145616 0.0042972113 0.0047456794 -0.0022335728 0.0
0.008951824 0.0063214703 0.004343967 -0.0062066964 -0.004214707 -0.0060794516 -0.009692834 0.014910102
0.0 -0.0007370505 -0.000101809324 0.0062492886 -0.0005402013 -0.0049427063 0.0006985358 0.0119727915
00000000: fccc 3dbb 08a7 463c c686 bdbb 4c41 413c
00000010: a188 a93b 0ad1 c73b a388 483c e2e4 d7bb
00000020: 9d39 3d3b a465 c63c 3e5e efba 05cc a13c
00000030: ffae be3b 7b62 1b3c 0000 0000 0a4a 873b
00000040: be71 f5ba 229a 8a3b 8fb5 6cbb 7d7e d4bb
00000050: a16c 1d3c d84f a63b 5e09 00bc 3982 e8bb
00000060: 5188 b4bb 2532 223b 5ef3 c93b 8672 cf3b
00000070: 5a8c 2b3b 18cb 3bbb f905 d8bb 7acb de3a
00000080: d5d2 4b3b 2dc3 c43b 1569 083c 6740 82b9
00000090: ee58 aabb 2054 363c b491 d43a acd2 843c
000000a0: 8901 8d3b b11b 15bb 5cb1 253c ce30 af3a
000000b0: 740c 6d39 1632 bcbb 9217 a5bb 96a0 033a
000000c0: 2b37 923b 08af 393a a01f 63bc 79ab 473c
000000d0: f4ee 843b 6e46 04bb a122 9b3b 7bef afbc
000000e0: 2225 0abc a0bc 2fba 0000 0000 6833 0d3c
000000f0: 5da4 493b e8a3 e4ba 81a2 663b ab48 713b
00000100: dab6 18bc e8c6 853b 01b6 3cbb 7542 21bc
00000110: 2478 01bc 2235 97ba b54b 7b3b 19ba c4bb
00000120: 0000 0000 84a0 1c3c ab3c 9abb 0000 0000
00000130: 8d55 243c 1507 1fbb 0000 0000 0000 0000
00000140: ff16 cbbb a35c eebb 5ca8 a5bb e475 93bb
00000150: 921a 8b3c b1bd 37bb b323 813b 6bbb febb
00000160: 779b d3ba 0000 0000 db31 993b a46f c4bb
00000170: 4597 1cbc ad5a b5bb d5ce 37bb 2bd0 c73a
00000180: 4524 87bb 9d6c 013b 9ebe 40bc f52d 85bb
00000190: 0000 0000 9e43 3dbb b18c c1ba 99f0 443b
000001a0: 1642 a6bb b65d 92bb 357f 853b cc39 263c
000001b0: 9fcf 8c3b a581 9b3b 2261 12bb 0000 0000
000001c0: acaa 123c 5624 cf3b d657 8e3b 8b61 cbbb
000001d0: 861b 8abb 2336 c7bb b1ce 1ebc 8049 743c
000001e0: 0000 0000 9f36 41ba 7782 d5b8 d5c6 cc3b
000001f0: 4c9c 0dba 6df6 a1bb f21d 373a 8729 443c

arith.constant3 f4 [32]
-0.009413176 -0.0007687516 -0.0016960351 0.0075013423 0.009169856 0.0058051376 -0.0035989983 -0.0015654524
-0.008998799 0.0070029865 -0.004118701 -0.009395407 -0.009107393 -0.0059755663 -0.010122827 0.015843207
0.001063749 -0.003873649 0.010161422 -0.0055195335 -0.0046975785 0.0015847003 0.006873534 -0.0019637963
-0.0035646094 -0.0043279836 0.0027906147 0.0 -0.011113309 -0.008682333 -0.005997081 0.0013546123
00000000: b939 1abc 0c86 49ba 7f4d deba d2cd f53b
00000010: 2a3d 163c 0639 be3b 2cdd 6bbb de2f cdba
00000020: b36f 13bc 4f79 e53b 2bf6 86bb 31ef 19bc
00000030: 2d37 15bc afce c3bb 37da 25bc 9dc9 813c
00000040: 7e6d 8b3a 0cdd 7dbb 187c 263c 34dd b4bb
00000050: 25ee 99bb b8b5 cf3a 623b e13b 09b3 00bb
00000060: 399c 69bb c2d1 8dbb bfe2 363b 0000 0000
00000070: 9914 36bc 5840 0ebc 2983 c4bb 3f8d b13a

arith.constant4 f4 [32]
-0.0060319775 -0.008285477 -0.006943469 0.007118321 -0.009593569 -0.006580653 0.0022804863 4.3422162e-05
-0.0049077813 -0.0068306746 -0.0026789391 0.003982828 0.007041279 0.0076610306 0.009879803 0.004672459
-0.005859819 0.008534972 -0.0042518703 -0.002304523 -0.0042746933 0.0044910554 -0.008221995 0.006223945
-0.0022297697 0.017484969 -0.0066509126 -0.0060115666 0.0019096804 0.010528844 -0.0036317015 -0.0056376182
00000000: e5a7 c5bb cfbf 07bc 0a86 e3bb ce40 e93b
00000010: 582e 1dbc 85a2 d7bb 3674 153b 3120 3638
00000020: 74d1 a0bb dad3 dfbb 2491 2fbb 6282 823b
00000030: 88ba e63b 6209 fb3b e6de 213c 6d1b 993b
00000040: b903 c0bb 44d6 0b3c 4653 8bbb 7b07 17bb
00000050: ba12 8cbb b429 933b 8cb5 06bc 3cf2 cb3b
00000060: 5421 12bb a33c 8f3c e6ef d9bb adfc c4bb
00000070: 3e4e fa3a 2c81 2c3c d701 6ebb c5bb b8bb

arith.constant5 f4 [64]
0.00031744785 -0.0070073814 0.014827841 -0.0056125354 -0.0067338813 -0.00626139 0.0043965275 -0.0066638463
0.012109796 -0.0071307635 0.0056135454 -0.007891199 -0.010206978 -0.0058598276 0.0015396257 -0.0040132757
-0.002545226 -0.0042580385 0.023471475 -0.0061019375 0.0049841492 -0.0106720915 -0.0068891207 -0.007750578
-0.00631818 0.0052999556 -0.0065610353 0.0107355025 -0.008999615 -0.008668349 0.0020073182 0.0047630747
0.013625459 -0.012733461 -0.006571509 0.0014544143 -0.0023084984 -0.0057485458 -0.0073479055 0.017010706
0.015249954 0.005299752 0.0032755053 0.005247429 -0.009708561 -0.0010361128 -0.012146849 -0.0064791837
0.014261333 -0.008178155 0.0104560545 0.020392267 0.017831031 -0.008405168 -0.006083246 -0.0054048006
0.026917676 0.0071015446 -0.017532969 -0.0007947468 -0.0056564505 0.018811943 -0.0075810244 0.009031479
00000000: 216f a639 2d9e e5bb 79f0 723c 5ce9 b7bb
00000010: e4a7 dcbb 592c cdbb bf10 903b 655c dabb
00000020: 2a68 463c 2ea9 e9bb d5f1 b73b 164a 01bc
00000030: 2b3b 27bc cc03 c0bb 44cd c93a cc81 83bb
00000040: cecd 26bb 0487 8bbb 4047 c03c c3f2 c7bb
00000050: 1352 a33b ffd9 2ebc 22be e1bb 90f8 fdbb
00000060: bc08 cfbb 40ab ad3b f4fd d6bb f6e3 2f3c
00000070: 1f73 13bc b105 0ebc 368d 033b 9113 9c3b
00000080: 513d 5f3c 02a0 50bc d055 d7bb 0ca2 be3a
00000090: 2d4a 17bb 4c5e bcbb b3c6 f0bb 095a 8b3c
000000a0: f1da 793c 8ba9 ad3b dca9 563b a0f2 ab3b
000000b0: a810 1fbc 2dce 87ba 9403 47bc 554f d4bb
000000c0: 5ea8 693c abfd 05bc df4f 2b3c af0d a73c
000000d0: 6212 923c d4b5 09bc f755 c7bb c11a b1bb
000000e0: 7582 dc3c 13b4 e83b 4da1 8fbc 8e56 50ba
000000f0: bf59 b9bb 811b 9a3c 3e6a f8bb c5f8 133c

arith.constant6 f4 [2]
-0.010357084 0.010357084
00000000: c2b0 29bc c2b0 293c

arith.constant7 f4 [32, 3, 3, 32]
0.069936484 0.077676244 -0.08064274 0.025037274 -0.09864409 0.07767522 -0.0031703091 -0.010391917
0.035478797 0.021775633 -0.02660202 -0.014984056 -0.09924384 -0.023174219 -0.08648564 -0.006718196
0.025277797 -0.07799007 0.0358093 0.07596706 -0.034035064 0.045088142 0.08179797 -0.056132827
0.07391773 0.008914107 -0.026259586 0.07134372 0.061551142 0.0002890741 -0.102630556 0.03384261
-0.0809609 -0.09793935 -0.07403113 0.024821578 0.051225826 -0.05112723 -0.06434311 0.06244743
0.08465558 -0.0012683868 -0.04920959 0.057994362 -0.09449558 0.02854324 -0.009328113 -0.04751568
0.019008063 -0.04432845 0.07423975 0.026102394 -0.04191255 -0.07402262 0.0051457062 0.03038217
-0.094480805 0.038830742 -0.02820649 -0.0130492 -0.024247998 -0.03465799 -0.07700375 0.011281349
0.053116173 -0.027073938 -0.08835996 0.085526496 0.014955729 -0.04630041 -0.016511166 0.0074247336
-0.036042772 -0.082696825 0.007421656 0.03277791 0.0494799 0.040122773 -0.09041982 -0.03664482
0.019852407 0.07950713 -0.047998402 0.079955004 0.026763394 -0.10054493 0.06678274 -0.019185308
-0.03237608 -0.00526377 0.004891321 -0.023319155 -0.023883546 -0.09716752 0.07814964 -0.042806365
-0.0646368 -0.06370532 0.0879093 0.06569148 -0.06426571 -0.038623244 -0.022555491 -0.071618624
-0.10967564 -0.036377482 -0.0563328 -0.032886248 -0.016306767 -0.090576574 -0.029772142 0.0020358309
0.041410338 -0.085529365 0.0017190201 -0.008243844 0.09328085 -0.09767205 -0.06294581 0.06736997
-0.056628652 -0.097162694 -0.095751815 0.026005864 -0.067930646 0.028368121 -0.08954711 -0.019635282
0.073032826 0.07393394 0.072505094 -0.10889514 -0.0896746 -0.01824107 -0.07609598 -0.020967219
0.058355447 -0.008000903 0.035652492 -0.0048178458 0.054360166 -0.04431016 0.08891144 0.04976481
-0.06698879 0.006622929 -0.09190873 0.0827159 -0.030439258 -0.010606986 0.069550976 -0.028811274
0.052740227 0.08333477 -0.07389382 -0.062916465 0.030000055 0.054853372 0.019162089 0.07656464
0.0796929 -0.024030637 0.07226029 0.0037247592 -0.07191638 -0.041899066 0.040755205 0.0021763064
-0.10603472 0.000862062 -0.0054375106 -0.08223431 0.053452775 -0.0277113 -0.04218413 -0.03904762
0.014636881 0.0031389776 0.011553772 -0.07209275 0.09682579 0.023629004 -0.024465457 0.08974875
-0.054100994 -0.022964424 -0.044610962 0.031713724 0.0101840105 0.09247071 -0.047734953 0.040816292
-0.06883534 -0.006229303 -0.014760457 -0.110958874 -0.09390371 -0.08684033 -0.02236053 -0.090231925
0.055820137 0.038199544 -8.649115e-05 0.010876748 0.006505683 -0.060789708 -0.055064708 0.019866662
-0.0108359875 0.02368583 -0.037380904 0.0022225752 0.09727448 -0.06508287 0.05478625 0.057588205
0.051312584 0.009504679 0.047235712 0.08113216 0.011355609 -0.00028548177 0.030034987 -0.02301097
0.057283893 -0.04991091 -0.051295158 0.06215762 -0.08013188 -0.09283136 -0.010831274 -0.0967237
-0.054253154 0.011194475 -0.051157624 -0.05387552 -0.07025745 0.022567298 0.053694386 0.040083036
-0.084800266 0.020774582 -0.017991593 -0.07796113 -0.0017004013 -0.027351841 -0.025358256 -0.06411001
0.04045175 -0.10182516 -0.034432895 -0.060417198 -0.076150246 0.057745807 -0.07229318 0.09401424
00000000: dc3a 8f3d b914 9f3d 0528 a5bd f81a cd3c
00000010: ea05 cabd 3014 9f3d f6c4 4fbb dc42 2abc
00000020: 3752 113d d062 b23c 7bec d9bc b07f 75bc
00000030: 5b40 cbbd dcd7 bdbc 621f b1bd 5024 dcbb
00000040: 6213 cf3c 42b9 9fbd c6ac 123d 9e94 9b3d
00000050: 5a68 0bbd 58ae 383d b285 a73d 89eb 65bd
00000060: 2e62 973d 7a0c 123c 581e d7bc a81c 923d
00000070: 0d1d 7c3d de8e 9739 f82f d2bd 8c9e 0a3d
00000080: d4ce a5bd 6d94 c8bd a29d 97bd 9f56 cb3c
00000090: 2cd2 513d c96a 51bd 52c6 83bd e0c8 7f3d
000000a0: e85f ad3d 0040 a6ba ff8f 49bd 7f8b 6d3d
000000b0: e686 c1bd 83d3 e93c f1d4 18bc cd9f 42bd
000000c0: ccb6 9b3c c091 35bd 030b 983d b0d4 d53c
000000d0: 7eac 2bbd 2c99 97bd 509d a83b 07e4 f83c
000000e0: 277f c1bd fc0c 1f3d 4c11 e7bc 50cc 55bc
000000f0: bda3 c6bc 89f5 0dbd 24b4 9dbd 68d5 383c
00000100: 5890 593d 2aca ddbc 11f6 b4bd 8428 af3d
00000110: e008 753c 80a5 3dbd 6d42 87bc 2e4b f33b
00000120: 96a1 13bd f45c a9bd 5d31 f33b 2142 063d
00000130: 70ab 4a3d c757 243d 072e b9bd e118 16bd
00000140: 84a1 a23c a2d4 a23d f999 44bd 73bf a33d
00000150: e83e db3c 80ea cdbd 64c5 883d 822a 9dbc
00000160: c89c 04bd b47b acbb 6047 a03b d007 bfbc
00000170: 6da7 c3bc c4ff c6bd eb0c a03d ba55 2fbd
00000180: 4c60 84bd ef77 82bd cb09 b43d 4189 863d
00000190: be9d 83bd 6833 1ebd 4bc6 b8bc c9ac 92bd
000001a0: 9f9d e0bd 8e00 15bd 39bd 66bd bbb3 06bd
000001b0: c595 85bc 3680 b9bd b5e4 f3bc 936b 053b
000001c0: e39d 293d 052a afbd be50 e13a 3011 07bc
000001d0: 080a bf3d 4908 c8bd bce9 80bd 44f9 893d
000001e0: 72f3 67bd 3cfd c6bd 8719 c4bd 400a d53c
000001f0: 391f 8bbd 4364 e83c 7a64 b7bd 2cda a0bc
00000200: 3c92 953d ad6a 973d 8d7d 943d 6a04 dfbd
00000210: 51a7 b7bd 4c6e 95bc 36d8 9bbd 72c3 abbc
00000220: 1f06 6f3d 3816 03bc 5908 123d 05df 9dbb
00000230: c4a8 5e3d 927e 35bd 3317 b63d 2fd6 4b3d
00000240: 6b31 89bd 2805 d93b a53a bcbd f466 a93d
00000250: c05b f9bc ecc8 2dbc be70 8e3d 9f05 ecbc
00000260: 2306 583d 6bab aa3d a555 97bd 59da 80bd
00000270: adc2 f53c eead 603d d0f9 9c3c eccd 9c3d
00000280: 0836 a33d e6db c4bc 34fd 933d 171b 743b
00000290: e548 93bd 5b9e 2bbd eeee 263d 5da0 0e3b
000002a0: bb28 d9bd 00fc 613a 252d b2bb 766a a8bd
000002b0: 4cf1 5a3d cf02 e3bc 44c9 2cbd 66f0 1fbd
000002c0: 87cf 6f3c 4eb7 4d3b 084c 3d3c 5da5 93bd
000002d0: 9a4c c63d 9d91 c13c c86b c8bc 31ce b73d
000002e0: 0199 5dbd e31f bcbc fcb9 36bd 40e6 013d
000002f0: d6da 263c 4961 bd3d ba85 43bd fc2e 273d
00000300: 8bf9 8cbd 2e1f ccbb d8d5 71bc 683e e3bd
00000310: 9750 c0bd 58d9 b1bd 6e2d b7bc 84cb b8bd
00000320: a8a3 643d 2077 1c3d 9562 b5b8 6334 323c
00000330: a02d d53b a1fe 78bd 888b 61bd 69bf a23c
00000340: 6d89 31bc c908 c23c b81c 19bd a0a8 113b
00000350: d837 c73d 2b4a 85bd 8c67 603d 9ce1 6b3d
00000360: 252d 523d 83b9 1b3c 3c7a 413d 9e28 a63d
00000370: e00c 3a3c b7ac 95b9 ef0b f63c 8081 bcbc
00000380: 84a2 6a3d 626f 4cbd df1a 52bd fd98 7e3d
00000390: 2f1c a4bd 5e1e bebd a875 31bc 1317 c6bd
000003a0: 8e38 5ebd 0869 373c a88a 51bd 94ac 5cbd
000003b0: 23e3 8fbd 0edf b83c a5ee 5b3d 1c2e 243d
000003c0: c3ab adbd 752f aa3c 1b63 93bc 16aa 9fbd
000003d0: 00e0 deba f810 e0bc 1ebc cfbc 1c4c 83bd
000003e0: bcb0 253d b689 d0bd 8209 0dbd 0678 77bd
000003f0: a9f4 9bbd de86 6c3d 720e 94bd 8a8a c03d

arith.constant8 f4 [32, 3, 3, 64]
0.005135513 0.01376125 -0.037035827 0.05500603 -0.039692856 -0.02493298 -0.081524335 -0.08755215
0.0500922 -0.00033257008 -0.02140492 -0.014151372 0.044751875 0.013318867 -0.066558726 -0.03319305
-0.058756754 0.028544864 0.077681534 0.00792791 0.072104424 0.029068036 0.06474092 0.02934931
0.051530093 0.08150245 -0.032994896 -0.0006664505 -0.044365965 0.022875741 0.029045526 -0.006667292
0.076769546 -0.032358766 -0.044230245 -0.0043377443 -0.0534171 -0.07159663 -0.037445836 -0.07258037
-0.04990164 -0.016839232 0.040402763 -0.06759555 -0.02974469 0.027567977 0.013781203 0.040283073
0.06528746 -0.04926684 -0.016041614 0.06848383 -0.017675096 0.041251663 -0.07865264 -0.070333175
0.025694657 0.049679838 -0.050621398 0.06271312 0.0668581 -0.019652171 0.0036789784 -0.06397529
-0.060696617 -0.06903639 0.04636136 0.017960792 -0.07526581 -0.04575302 -0.0124090435 0.038571116
-0.07205093 -0.013506401 0.06769575 -0.005032815 -0.04374479 0.024461921 -0.045175705 -0.03801035
0.064634345 -0.019591924 0.075918086 0.05787764 0.0053751003 0.052420773 0.015909089 0.033872437
0.025846524 -0.06991042 -0.051962204 -0.017681956 -0.050574906 -0.076190405 0.0038419594 -0.025100749
0.02517989 -0.018175414 0.006286226 0.0044487016 0.007652993 0.023235101 -0.08286087 -0.048939746
-0.019130966 0.05589542 0.075256005 0.07007834 -0.057186656 -0.0031230208 -0.054132927 0.002588477
0.06279554 0.07176984 -0.07729141 -0.050644487 -0.08237649 -0.052622773 0.045549106 0.032494377
0.050438225 0.06729562 -0.019288361 0.033088088 0.02129065 -0.08015991 0.032490063 -0.0039704964
-0.03635278 0.06617128 0.06369201 0.012793754 -0.028357832 -0.08519217 -0.082674176 -0.050544765
-0.054481905 -0.038029622 -0.027168466 -0.015895449 0.0540232 -0.017245084 0.066648774 -0.08746341
-0.0735465 0.054565616 -0.07478485 0.01934369 0.061942354 0.022946173 0.06774312 -0.011802642
0.036890745 0.022341039 0.06707456 -0.007488054 -0.03154156 0.069984026 0.079255246 -0.06764025
-0.012459831 -0.047332264 -0.021138214 -0.0788803 -0.049422134 0.010677578 -0.042069484 0.03785241
-0.06175135 -0.075614974 0.061616704 0.026975062 -0.06195092 -0.08716241 -0.042196486 0.06196747
-0.0035541987 0.05335484 -0.076770484 -0.0371009 0.012794643 -0.0758153 0.07569663 0.034106806
0.06608749 0.010001734 0.06326819 -0.012157509 0.052184727 0.06727585 -0.042554975 -0.074265234
-0.0040675746 0.06301528 -0.08388507 0.0062738094 -0.026031805 0.054330073 0.028338084 0.04338676
-0.051864356 -0.08291218 0.017284103 0.07807258 -0.062303863 -0.04314783 -0.06659411 0.04527018
-0.02287588 -0.04696766 -0.0061076367 -0.03743274 0.017133744 0.01649525 -0.03273985 -0.07782936
0.05356057 0.060279723 0.07645039 -0.07994719 -0.0024213109 0.046907447 -0.070879444 -0.070698716
-0.00048042668 -0.040640917 0.027794037 -0.057200745 -0.0058358726 -0.022926511 0.071567185 -0.020088406
-0.02448368 0.07643228 0.07564781 0.07856373 0.0022345595 0.064264126 0.05486424 0.06737308
-0.021732649 0.014695338 0.0695065 9.993893e-05 0.014773962 0.06646859 0.015878981 0.018607548
0.01040781 -0.088821866 0.02440974 0.04786561 -0.06814093 -0.030616779 -0.08703052 -0.030468397
00000000: ce47 a83b de76 613c e1b2 17bd 014e 613d
00000010: fa94 22bd 4040 ccbc 3bf6 a6bd 8b4e b3bd
00000020: 7b2d 4d3d cd5c aeb9 5f59 afbc 28db 67bc
00000030: be4d 373d 6137 5a3c f14f 88bd 70f5 07bd
00000040: ecaa 70bd ebd6 e93c 7f17 9f3d 11e4 013c
00000050: 7cab 933d 1720 ee3c e396 843d f76d f03c
00000060: 3811 533d c2ea a63d a825 07bd bcb4 2eba
00000070: 16b9 35bd e865 bb3c e2f0 ed3c 4d79 dabb
00000080: 5a39 9d3d a08a 04bd c62a 35bd a323 8ebb
00000090: e4cb 5abd 41a1 92bd ce60 19bd 04a5 94bd
000000a0: a965 4cbd 6ef2 89bc 5e7d 253d 896f 8abd
000000b0: 23ab f3bc 3dd6 e13c 8eca 613c ddff 243d
000000c0: 6fb5 853d 07cc 49bd b469 83bc 4041 8c3d
000000d0: 5dcb 90bc 81f7 283d a314 a1bd d70a 90bd
000000e0: 9a7d d23c 167d 4b3d 6258 4fbd bc6f 803d
000000f0: e6ec 883d 97fd a0bc 041b 713b 7a05 83bd
00000100: 049d 78bd f362 8dbd 69e5 3d3d 8322 933c
00000110: f624 9abd 8567 3bbd 4d4f 4bbc bffc 1d3d
00000120: 708f 93bd f449 5dbc 12a4 8a3d 50ea a4bb
00000130: bd2d 33bd 5e64 c83c 290a 39bd beb0 1bbd
00000140: 035f 843d 3e7f a0bc f17a 9b3d 1b11 6d3d
00000150: 9c21 b03b 2ab7 563d c753 823c d3bd 0a3d
00000160: 17bc d33c 322d 8fbd 52d6 54bd c0d9 90bc
00000170: a227 4fbd b709 9cbd 62c9 7b3b 16a0 cdbc
00000180: 0f46 ce3c 9be4 94bc b0fc cd3b 6ac6 913b
00000190: f5c5 fa3b 8a57 be3c f6b2 a9bd 0b75 48bd
000001a0: 8bb8 9cbc 99f2 643d d21f 9a3d 3c85 8f3d
000001b0: 8e3c 6abd 98ab 4cbb 7dba 5dbd 70a3 293b
000001c0: f39a 803d 11fc 923d f54a 9ebd 9870 4fbd
000001d0: 01b5 a8bd fa8a 57bd b391 3a3d d318 053d
000001e0: 5098 4e3d 49d2 893d a002 9ebc 6087 073d
000001f0: bb69 ae3c e12a a4bd 4d14 053d f01a 82bb
00000200: a7e6 14bd cf84 873d f570 823d e59c 513c
00000210: af4e e8bc 3c79 aebd 1451 a9bd 0708 4fbd
00000220: 6b28 5fbd f3c4 1bbd 6790 debc 2c37 82bc
00000230: 6e47 5d3d 9045 8dbc 277f 883d 0420 b3bd
00000240: 8c9f 96bd 3280 5f3d cd28 99bd a876 9e3c
00000250: 44b7 7d3d 9df9 bb3c e8bc 8a3d de5f 41bc
00000260: c01a 173d 8e04 b73c 635e 893d 5a5e f5bb
00000270: b931 01bd c953 8f3d 9350 a23d f986 8abd
00000280: 5224 4cbc 7adf 41bd 0c2a adbc ff8b a1bd
00000290: dd6e 4abd 02f1 2e3c 0d51 2cbd 210b 1b3d
000002a0: fcee 7cbd 06dc 9abd cc61 7c3d cefa dc3c
000002b0: 3fc0 7dbd 3582 b2bd 39d6 2cbd 9ad1 7d3d
000002c0: 8fed 68bb 9b8a 5a3d d839 9dbd 1df7 17bd
000002d0: 9fa0 513c 0d45 9bbd d606 9b3d 94b3 0b3d
000002e0: e158 873d 50de 233c c192 813d 4a30 47bc
000002f0: a7bf 553d ecc7 893d 204e 2ebd 5f18 98bd
00000300: 4a49 85bb 280e 813d f0cb abbd 8794 cd3b
00000310: a740 d5bc 3689 5e3d 4525 e83c 51b6 313d
00000320: b86f 54bd dccd a9bd 6497 8d3c 84e4 9f3d
00000330: 5632 7fbd c7bb 30bd 7e62 88bd 396d 393d
00000340: 3366 bbbc 2961 40bd 9222 c8bb 1353 19bd
00000350: 115c 8c3c 0c21 873c 391a 06bd 0065 9fbd
00000360: 5462 5b3d dfe7 763d 0692 9c3d 5abb a3bd
00000370: dbae 1ebb 0622 403d 3e29 91bd 7dca 90bd
00000380: c7e1 fbb9 1777 26bd 52b0 e33c 544b 6abd
00000390: d93a bfbb 61d0 bbbc d191 923d 7190 a4bc
000003a0: 0092 c8bc 8788 9c3d 3ded 9a3d 05e6 a03d
000003b0: b071 123b e99c 833d 53b9 603d e6fa 893d
000003c0: ab08 b2bc b7c4 703c 6d59 8e3d 4e96 d138
000003d0: 7d0e 723c af20 883d a314 823c db6e 983c
000003e0: 8585 2a3c 3de8 b5bd eff6 c73c bb0e 443d
000003f0: 798d 8bbd 0ad0 fabc 0f3d b2bd dc98 f9bc

arith.constant9 f4 [64, 3, 3, 128]
-0.059200954 -0.0498596 -0.006069957 0.06367968 -0.02808924 -0.0579055 0.033605985 0.001107798
0.00044992974 0.0065804916 -0.058527995 0.06545382 0.0065959566 0.011394027 -0.014357761 -0.036036916
-0.021709282 0.012732889 0.04018752 0.050130498 0.054589216 0.055321403 -0.05029146 -0.030958207
0.046477064 -0.044429846 0.0422188 -0.031660896 0.0320227 0.011895244 -0.050595216 0.010171372
-0.0078493925 0.048037898 0.0123906415 -0.045266505 -0.006101569 -0.027735833 -0.05390451 0.022776501
0.021702623 -0.008929994 0.054595478 -0.034360528 0.05188479 -0.057403076 -0.018257452 -0.01346981
0.025393728 -0.051760864 -0.02907571 -0.011566546 0.03403945 0.03830351 -0.02486417 -0.025070813
-0.0150536 -0.034224506 0.036073897 -0.0024733446 -0.056343142 0.054142885 -0.0038453331 0.0123357475
0.038726475 -0.020268252 0.05919998 -0.0129691055 -0.0054314733 -0.0151697835 -0.034917966 -0.01658671
0.030733405 -0.052340016 -0.033101935 -0.044858962 0.021190245 0.049253475 0.030538948 0.05314828
0.058810733 -0.01508601 -0.026460659 0.019441286 0.021468785 0.029671228 -0.014579553 -0.036661364
-0.01863195 0.0034635244 0.041473996 0.0039723534 -0.013413717 0.04160806 -0.0028236283 0.030495534
0.010758703 -0.057115577 -0.035283647 -0.0014809059 0.05632952 -0.026777765 0.07226312 -0.005435342
-0.014336727 -0.0030204698 -0.06032983 -0.06918997 -0.061644536 -0.04362341 -0.0012613289 0.017217007
0.071167246 0.0088579105 -0.04411392 -0.014715575 -0.036325004 -0.028058138 1.8077466e-05 0.061048876
-0.0362121 0.02546165 -0.02113603 0.052709345 0.016688861 0.0060623996 0.040185533 -0.044348918
0.0036194257 -0.040015332 0.0071441843 0.04814893 0.014072158 -0.04994202 -0.017771767 0.016925095
-0.036682807 0.06504006 -0.013378766 0.023220703 0.036566574 0.005764465 -0.012789485 0.005447921
-0.0010981854 0.036382735 0.036495253 -0.011108445 -0.021619841 0.048414752 -0.008935289 -0.014058322
0.0070065176 -0.055104777 0.04689253 -0.02531212 0.09424784 -0.021003757 0.023051886 0.036133286
0.045183253 0.015740125 0.012893791 -0.018782444 0.079727136 -0.011454404 -0.0037112515 -0.027041538
0.04644111 0.055606432 -0.038178623 0.06646792 -0.020750606 0.029082865 0.041680828 0.053224508
-0.008131468 -0.03570241 -0.03128093 -0.031873964 -0.032673605 0.034230884 -0.025707452 -0.047453795
0.071654245 0.061759338 -0.06691175 0.0071814056 0.06753071 0.037744183 -0.0471162 0.05274421
0.031039625 -0.05644663 -0.01368861 -0.018677367 -0.060747307 -0.048609536 0.049950674 0.023709778
-0.064119644 -0.02728304 0.018432446 -0.05565663 0.013255426 -0.007717443 0.026141917 -0.026810441
0.03576305 0.03809001 0.046523273 0.052065562 0.048011407 -0.0357309 -0.02661275 0.06143477
-0.035720643 -0.035645504 0.04090096 -0.02707227 -0.040236298 -0.054279547 0.02124216 -0.012650468
-0.022210062 -0.016283328 0.048960187 0.028244765 0.059526403 0.045298036 0.06688178 -0.04686691
-0.039631173 -0.050067607 -0.005100821 -0.045143377 0.060333982 -0.058038346 0.036800165 0.017820911
-0.04501269 0.021962203 0.047084257 -0.053205375 0.048759237 0.051007304 0.0050389622 0.051383737
-0.041931085 -0.019027939 0.06087349 -0.063106716 0.03707471 0.011064824 0.0682596 0.0451824
00000000: b37c 72bd 9439 4cbd 7de6 c6bb 7e6a 823d
00000010: 681b e6bc 512e 6dbd 6ea6 093d 8833 913a
00000020: 8ce4 eb39 2aa1 d73b 0dbb 6fbd a70c 863d
00000030: e522 d83b 03ae 3a3c d03c 6bbc 729b 13bd
00000040: aad7 b1bc 9b9d 503c ab9b 243d a355 4d3d
00000050: f198 5f3d b298 623d 6bfe 4dbd 119c fdbc
00000060: bc5e 3e3d 12fc 35bd 9fed 2c3d dbae 01bd
00000070: 3c2a 033d 45e4 423c ee3c 4fbd d4a5 263c
00000080: bd9a 00bc 63c3 443d 1e02 4b3c 5f69 39bd
00000090: acef c7bb 4236 e3bc faca 5cbd c995 ba3c
000000a0: b3c9 b13c 1c4f 12bc 829f 5f3d a0bd 0cbd
000000b0: 2585 543d 7d1f 6bbd a790 95bc 7ab0 5cbc
000000c0: 8206 d03c 3303 54bd 2f30 eebc 9c81 3dbc
000000d0: f36c 0b3d 24e4 1c3d f2af cbbc 4e61 cdbc
000000e0: 60a3 76bc ff2e 0cbd 39c2 133d d617 22bb
000000f0: 11c8 66bd eec4 5d3d fc01 7cbb e01b 4a3c
00000100: a79f 1e3d 9b09 a6bc ae7b 723d 5f7c 54bc
00000110: 80fa b1bb af8a 78bc 2406 0fbd dae0 87bc
00000120: 9fc4 fb3c 7c62 56bd e595 07bd 08be 37bd
00000130: 2a97 ad3c 03be 493d d12c fa3c 03b2 593d
00000140: 86e3 703d 502b 77bc 06c4 d8bc 5543 9f3c
00000150: 4edf af3c 1311 f33c 14df 6ebc 3a2a 16bd
00000160: 08a2 98bc 4cfc 623b a3e0 293d 842a 823b
00000170: 35c5 5bbc 376d 2a3d 9f0c 39bb c5d1 f93c
00000180: 4545 303c 06f2 69bd 9685 10bd f51a c2ba
00000190: c8b9 663d 0b5d dbbc b0fe 933d f41a b2bb
000001a0: 97e4 6abc 13f3 45bb 691c 77bd 79b3 8dbd
000001b0: fb7e 7cbd 76ae 32bd 2d53 a5ba ae0a 8d3c
000001c0: 22c0 913d c520 113c ccb0 34bd 9819 71bc
000001d0: 87c9 14bd 2eda e5bc 10a5 9737 630e 7a3d
000001e0: 2453 14bd f394 d03c 7825 adbc c1e5 573d
000001f0: 14b7 883c 18a7 c63b 9699 243d 36a7 35bd
00000200: e333 6d3b 1ee7 23bd c319 ea3b d037 453d
00000210: e98e 663c 0190 4cbd 1996 91bc 7fa6 8a3c
00000220: b640 16bd b933 853d 9d32 5bbc 5839 be3c
00000230: d5c6 153d d6e3 bc3b fd8a 51bc 7984 b23b
00000240: fdf0 8fba 1006 153d 0c7c 153d 3200 36bc
00000250: 181c b1bc 8c4e 463d 5265 12bc e054 66bc
00000260: ee96 e53b 8cb5 61bd 6212 403d 5d5b cfbc
00000270: 0305 c13d 1210 acbc 4fd7 bc3c 7f00 143d
00000280: 1312 393d 6ff1 803c 7b40 533c a4dd 99bc
00000290: fb47 a33d 41ab 3bbc 7838 73bb 3786 ddbc
000002a0: 0939 3e3d 92c3 633d 3061 1cbd 5520 883d
000002b0: 2dfd a9bc 303f ee3c 84b9 2a3d f101 5a3d
000002c0: d939 05bc b13c 12bd 6f20 00bd 468e 02bd
000002d0: c2d4 05bd af35 0c3d 6f98 d2bc e95e 42bd
000002e0: 76bf 923d 5cf7 7c3d 0709 89bd ff51 eb3b
000002f0: 8a4d 8a3d a599 1a3d ebfc 40bd 500a 583d
00000300: d046 fe3c 9534 67bd 3146 60bc 4701 99bc
00000310: 2bd2 78bd cb1a 47bd 1499 4c3d 023b c23c
00000320: 2951 83bd af80 dfbc a4ff 963c 35f8 63bd
00000330: 492d 593c 9be2 fcbb 9327 d63c 92a1 dbbc
00000340: 477c 123d 4504 1c3d 308f 3e3d b342 553d
00000350: 9ca7 443d 905a 12bd fb02 dabc 06a3 7b3d
00000360: cf4f 12bd 0501 12bd c487 273d aac6 ddbc
00000370: d1ce 24bd 3b54 5ebd 0a04 ae3c e943 4fbc
00000380: e0f1 b5bc 9d64 85bc 7a8a 483d 9161 e73c
00000390: f5d1 733d 6f8a 393d 51f9 883d 84f7 3fbd
000003a0: 4c54 22bd b113 4dbd ca24 a7bb 43e8 38bd
000003b0: c420 773d 9eb9 6dbd c5bb 163d 29fd 913c
000003c0: 3a5f 38bd 14ea b33c 6cdb 403d e1ed 59bd
000003d0: c4b7 473d 09ed 503d e11d a53b c177 523d
000003e0: eebf 2bbd 7be0 9bbc 7b56 793d 183e 81bd
000003f0: a7db 173d 3c49 353c b0cb 8b3d 2e11 393d

arith.constant10 f4 [2, 32]
0.36597243 -0.30909798 0.069585636 0.0027263688 -0.08988517 0.11830412 0.40971506 -0.036996115
0.26921237 0.013747348 0.19687758 -0.2774875 0.021582788 -0.20512842 0.24940419 -0.030488426
-0.13616309 0.31630996 -0.22363213 -0.2917052 -0.3293672 -0.008764058 -0.2898639 -0.2681629
0.38973966 -0.16366082 0.103763916 -0.029808633 -0.080848984 0.23024336 -0.04870099 0.34171978
-0.009392954 0.07790872 -0.40801665 0.11891157 0.11300852 0.43735296 -0.043183334 0.1630632
0.16085355 0.009401393 0.4152722 -0.20337078 -0.4036038 -0.01700585 0.12985751 0.25512376
-0.39139506 0.43480822 -0.035125315 -0.25786012 0.2822419 0.076724164 0.12863852 -0.24426311
-0.432738 -0.19609974 -0.07739994 -0.1311793 -0.42519772 0.3089876 -0.011165559 0.051677495
00000000: bd60 bb3e 1742 9ebe ea82 8e3d e1ac 323b
00000010: b715 b8bd 6e49 f23d 2cc6 d13e 3d89 17bd
00000020: 34d6 893e 8f3c 613c 479a 493e d712 8ebe
00000030: 63ce b03c 2f0d 52be d063 7f3e ddc2 f9bc
00000040: 566e 0bbe 61f3 a13e d2ff 64be 625a 95be
00000050: d1a2 a8be 2097 0fbc 0b69 94be a64c 89be
00000060: f58b c73e b496 27be 2d82 d43d 3c31 f4bc
00000070: 2794 a5bd eac4 6b3e b07a 47bd e5f5 ae3e
00000080: e8e4 19bc 9b8e 9f3d 8fe7 d0be e987 f33d
00000090: 0371 e73d baec df3e 02e1 30bd 0afa 263e
000000a0: cbb6 243e 4d08 1a3c 8f9e d43e 6e40 50be
000000b0: 28a5 cebe da4f 8bbc 5ef9 043e 959f 823e
000000c0: ef64 c8be 2f9f de3e 90df 0fbd 3e06 84be
000000d0: 0382 903e 8f21 9d3d d1b9 033e 1c20 7abe
000000e0: d68f ddbe 5fce 48be dc83 9ebd de53 06be
000000f0: 84b3 d9be 9f33 9e3e c0ef 36bc c8ab 533d

arith.constant11 f4 [32, 64]
0.12564704 -0.09204048 0.082430534 0.23943688 0.22786596 0.1273194 0.005464194 -0.106697045
-0.14156361 0.31176898 0.19154917 0.012496585 -0.2295936 0.12930937 -0.12491848 -0.20847072
-0.17180894 0.053282145 -0.11616404 0.0114171505 0.00017102392 0.05009773 -0.054223612 -0.013393866
-0.18996972 -0.059450187 0.07214904 -0.013947995 -0.19280843 0.07363614 -0.094056666 0.055818617
-0.17584193 -0.13919432 -0.07892994 0.17892534 0.21394587 -0.10560878 -0.14062577 0.17351727
0.24678262 -0.11325765 -0.093144044 0.18598464 -0.094733864 0.23365118 0.20091863 0.04464753
0.1827715 -0.14147991 -0.1026311 0.22909798 -0.19538689 -0.23271263 0.10491182 0.1716203
0.20623204 0.17047663 0.15635629 0.142524 -0.19551331 -0.042690087 -0.011592805 0.26022294
-0.06746007 -0.17584541 -0.0686479 0.027105 -0.13134508 0.1813181 -0.009446469 -0.17003039
-0.05174273 -0.22530125 0.019221114 0.18613231 -0.18735816 -0.09842652 -0.2050017 0.119780645
0.24541324 -0.15565836 -0.16522652 -0.048724633 0.03413311 -0.2219062 -0.22785418 -0.15060079
-0.20811296 -0.13511686 0.21066207 -0.18694222 -0.21525383 0.14405595 -0.1985018 0.085082635
-0.20978968 -0.1380739 -0.089066006 -0.06326103 -0.15782827 -0.110518284 0.043992635 0.17200623
-0.22401457 -0.20410073 0.15412417 0.19490387 0.0019949845 0.13899623 0.20956883 0.11612304
-0.099746406 0.16509748 0.10850747 0.22698669 -0.12614895 0.11127972 -0.10304162 -0.04903889
0.15106237 -0.09700836 -0.20367962 -0.22849542 0.12769163 0.110046916 0.22423849 -0.24805437
-0.23259956 0.17263782 -0.16959965 -0.24538831 0.10216909 0.1301513 0.22641367 -0.1869545
0.16280419 -0.230591 0.02484107 0.11235387 0.062957555 0.20603737 0.03112924 -0.05791207
0.051938154 -0.0067421794 0.0734341 0.012884617 0.0028619883 0.070883274 0.16615295 0.108635485
0.0060618836 0.042475257 -0.17622226 -0.07017772 -0.04638682 -0.03358336 -0.08821082 -0.025520444
-0.22589082 0.11621859 0.14965133 0.22201478 0.07862359 -0.06829008 -0.030879436 -0.13221218
0.19448726 0.021070182 0.10675132 -0.124546506 0.08913527 -0.17281224 -0.13196462 -0.23566934
0.032212317 -0.20099175 -0.10454556 0.11938968 -0.2416922 0.24019106 0.07546439 0.114949524
0.14444089 0.20876114 -0.04963902 0.08536569 0.17492723 0.11423547 -0.11989224 -0.17040044
0.18069072 -0.027182512 -0.008191399 0.018125035 -0.1041794 0.23522565 0.044957604 0.16085546
0.09788318 0.113245845 0.23502125 0.09710168 -0.059803728 -0.19076882 0.13527077 0.16040269
-0.103008494 0.13407552 -0.15989363 0.22501524 -0.17469826 -0.08858302 0.016102243 -0.073221266
-0.052324988 0.24153839 0.122998714 -0.2470022 0.08280756 0.1520668 -0.14498757 -0.036901705
-0.06875597 0.23706116 -0.027382165 0.24000263 -0.082874596 0.03006834 0.09516638 -0.18091169
0.052025024 0.24975222 0.22867478 -0.2055118 0.18295589 -0.09689634 -0.029288732 0.14531271
-0.14508456 -0.04656561 0.09243991 0.057506572 -0.21491908 0.14028962 -0.09973231 -0.26315635
-0.2731125 0.046558987 0.12506536 -0.1976727 -0.23576319 0.1187291 -0.031686433 -0.17094262
00000000: 9ea9 003e b87f bcbd 57d1 a83d f12e 753e
00000010: b255 693e 0460 023e fb0c b33b fb83 dabd
00000020: 0df6 10be 2fa0 9f3e 7725 443e 7abe 4c3c
00000030: 961a 6bbe ad69 043e 43d5 ffbd 5979 55be
00000040: afee 2fbe 613e 5a3d 6ae7 edbd 000f 3b3c
00000050: e254 3339 4733 4d3d 9419 5ebd f271 5bbc
00000060: 6c87 42be 0a82 73bd e0c2 933d 2286 64bc
00000070: 936f 45be 8bce 963d c8a0 c0bd 10a2 643d
00000080: e80f 34be f588 0ebe 05a6 a1bd 3438 373e
00000090: a014 5b3e 6b49 d8bd 3400 10be 83ae 313e
000000a0: 95b4 7c3e a0f3 e7bd 4ec2 bebd c272 3e3e
000000b0: d403 c2bd 4142 6f3e 9dbd 4d3e 54e0 363d
000000c0: 7428 3b3e 1ce0 10be 4130 d2bd a998 6a3e
000000d0: 8013 48be 384c 6ebe 02dc d63d 3bbd 2f3e
000000e0: 7e2e 533e 6d91 2e3e dd1b 203e d0f1 113e
000000f0: a434 48be cddb 2ebd c0ef 3dbc f13b 853e
00000100: 8128 8abd d210 34be 4597 8cbd 4e0b de3c
00000110: 537f 06be 74ab 393e 5dc5 1abc 721c 2ebe
00000120: 2ff0 53bd 5fb5 66be 9975 9d3c 7899 3e3e
00000130: d1da 3fbe d893 c9bd f7eb 51be 8e4f f53d
00000140: 9c4d 7b3e e864 1fbe 2431 29be 7b93 47bd
00000150: 29cf 0b3d 613b 63be 9b52 69be 1837 1abe
00000160: 901b 55be 135c 0abe ccb7 573e c86d 3fbe
00000170: 806b 5cbe 6783 133e 0e44 4bbe ce3f ae3d
00000180: 1bd3 56be 3f63 0dbe 3d68 b6bd 008f 81bd
00000190: bc9d 21be 6957 e2bd 9f31 343d 6722 303e
000001a0: 1364 65be c8ff 50be bad2 1d3e e194 473e
000001b0: 49be 023b 0755 0e3e 3699 563e ebd1 ed3d
000001c0: d847 ccbd 500f 293e 2a39 de3d 336f 683e
000001d0: 312d 01be 9fe6 e33d 7c07 d3bd 01dd 48bd
000001e0: 18b0 1a3e 52ac c6bd 6491 50be b4fa 69be
000001f0: 98c1 023e 4760 e13d c69e 653e f701 7ebe
00000200: 942e 6ebe f8c7 303e 88ab 2dbe 1347 7bbe
00000210: 073e d13d 6246 053e fcd8 673e 0071 3fbe
00000220: 24b6 263e 0c20 6cbe 807f cb3c c919 e63d
00000230: e4ef 803d 76fb 523e bf02 ff3c 3535 6dbd
00000240: 1abd 543d 80ed dcbb 9e64 963d 001a 533c
00000250: 3290 3b3b 402b 913d 0024 2a3e 487c de3d
00000260: c4a2 c63b 89fa 2d3d 9c73 34be 56b9 8fbd
00000270: 1b00 3ebd b58e 09bd e0a7 b4bd 4010 d1bc
00000280: ec4f 67be 0304 ee3d 333e 193e d857 633e
00000290: 6805 a13d abdb 8bbd dff6 fcbc a162 07be
000002a0: ab27 473e 609b ac3c 70a0 da3d 3d12 ffbd
000002b0: 8d8c b63d b1f5 30be bc21 07be 4e53 71be
000002c0: 10f1 033d c8d0 4dbe fc1b d6bd 9482 f43d
000002d0: 297e 77be a5f4 753e 138d 9a3d a86a eb3d
000002e0: 50e8 133e 7bc5 553e 4952 4bbd 35d4 ae3d
000002f0: 2020 333e 49f4 e93d 108a f5bd 747d 2ebe
00000300: fd06 393e dcad debc 3835 06bc f47a 943c
00000310: 025c d5bd fede 703e 7725 383d 4bb7 243e
00000320: fa76 c83d 70ed e73d 69a9 703e 3fdd c63d
00000330: c1f4 74bd e758 43be 6c84 0a3e 9a40 243e
00000340: 1ef6 d2bd 184b 093e 28bb 23be 656a 663e
00000350: 1ae4 32be 046b b5bd dae8 833c 08f5 95bd
00000360: ba52 56bd d755 773e c0e6 fb3d 25ee 7cbe
00000370: 0397 a93d 66b7 1b3e 9f77 14be 3e26 17bd
00000380: eecf 8cbd 29c0 723e 9050 e0bc 40c3 753e
00000390: 28ba a9bd e151 f63c 97e6 c23d ea40 39be
000003a0: 3118 553d 0cbf 7f3e b929 6a3e af71 52be
000003b0: ca58 3b3e 9771 c6bd ecee efbc dbcc 143e
000003c0: 0c91 14be 95bb 3ebd 2351 bd3d 038c 6b3d
000003d0: bf13 5cbe 15a8 0f3e 7440 ccbd 6ebc 86be
000003e0: 67d5 8bbe a3b4 3e3d 2211 003e b66a 4abe
000003f0: e86b 71be 3e28 f33d a2c9 01bd 950b 2fbe

arith.constant12 f4 [64, 128]
0.13468662 0.049906086 -0.1414514 0.15546313 -0.1215424 -0.065098256 0.029143203 0.10945027
-0.12927127 0.1139423 0.015491034 0.029484132 0.17910184 0.008218024 0.1483119 0.17032757
-0.11377709 0.014544617 -0.042296134 0.032264985 0.10116832 -0.075371616 -0.12131884 0.18525165
-0.1890804 0.14244735 0.118744016 0.16710399 0.11604924 -0.11205078 -0.07210878 0.034183174
0.11315747 -0.05693145 0.15741555 0.106287666 0.12278479 0.14823295 0.057183627 -0.07082833
0.15831509 -0.13864192 0.15365706 -0.093950234 0.0992166 -0.14009422 -0.034119274 -0.14714245
0.051278945 -0.037132896 0.023068562 0.159047 -0.06863894 -0.107530124 0.0021620365 -0.09209011
-0.039439574 -0.050723094 -0.16688326 0.19873428 0.14920229 -0.17767586 0.03636115 0.12998581
0.0040788054 0.15754966 0.025703961 0.011024838 -0.10708112 0.008757364 -0.06485736 0.076303616
0.08416836 0.04005867 -0.047010835 0.04644595 0.19338275 -0.097771816 -0.07076489 -0.030613527
0.16031155 -0.13178994 -0.16121519 0.056986112 -0.10637957 -0.047516845 0.13341062 -0.14031996
-0.12005931 -0.11137431 0.08647822 0.123133115 -0.08796638 -0.019927528 -0.014676762 -0.027694428
-0.048642162 0.075424515 0.18145843 -0.12700878 -0.103829645 -0.12553029 0.1367917 -0.06324845
0.14866953 0.0008905994 -0.123069264 0.056872506 -0.062488772 0.114915006 -0.062249362 0.15535863
0.15800108 0.12722151 -0.10557871 -0.08676361 -0.06487192 -0.10330683 -0.04922135 0.015055876
-0.025078014 0.08191077 -0.039040264 -0.017790128 0.1965602 -0.023743164 -0.17418516 -0.006698108
0.09805245 0.119650595 -0.019444868 -0.16290869 0.10177518 -0.061120544 -0.04131268 0.123760775
0.051288344 -0.09828689 -0.015882045 -0.11855116 -0.11882911 -0.059032474 0.06232086 -0.11328305
0.077452496 0.03585232 -0.065177284 -0.06779881 0.050046474 0.051902413 -0.09438811 0.063381605
0.03757516 0.15812534 -0.051205434 0.1341822 0.08371037 -0.16155018 -0.086228065 0.001586268
0.16655311 0.09255634 -0.062980875 0.041756526 -0.06181126 0.06594254 -0.16819286 -0.13670051
-0.034217387 -0.15748708 0.027725667 0.07102856 0.16256748 -0.099409916 -0.089927524 -0.14521857
0.02553854 0.1271065 0.11792649 -0.020316921 -0.17860512 -0.15103742 -0.011523237 -0.08063429
-0.036415294 0.03232775 0.073117524 -0.10156358 -0.03554757 -0.0034650469 -0.06206974 -0.1493456
-0.106483504 0.072043374 0.17222781 0.15662469 0.1311212 -0.1282076 -0.020385435 -0.06271396
0.15626259 -0.056836598 0.009946937 -0.1687341 0.15427347 0.05129052 -0.09457731 -0.08123282
-0.0181852 -0.1038645 0.15310863 -0.15069611 -0.08052244 0.11871049 0.050438356 -0.09057493
-0.11848018 0.063796416 0.08920236 0.043827966 -0.08491422 -0.036192518 -0.07029138 -0.028931597
-0.09592109 -0.053956978 0.14469118 -0.04690408 0.09967457 -0.12120898 0.1628132 -0.08651365
-0.12417005 -0.045197397 0.021133969 -0.06109926 -0.08653572 0.13492759 0.1013879 0.05533485
0.016828416 -0.056126364 -0.14281407 0.09663148 0.08763178 0.109849915 0.0028608954 0.11043499
0.092111394 -0.026835188 0.06734281 0.03880193 -0.028311506 0.16858007 -0.15218706 0.03410619
00000000: 4aeb 093e 536a 4c3d a3d8 10be ba31 1f3e
00000010: 39eb f8bd 3c52 85bd babd ee3c 7727 e03d
00000020: b05f 04be 955a e93d 1bce 7d3c b588 f13c
00000030: 7966 373e e4a4 063c 13df 173e 5a6a 2e3e
00000040: f703 e9bd 8c4c 6e3c b63e 2dbd 4a28 043d
00000050: 5631 cf3d 6f5c 9abd 0376 f8bd 9cb2 3d3e
00000060: 4b9e 41be b8dd 113e 1030 f33d 4f1d 2b3e
00000070: 39ab ed3d e17a e5bd c5ad 93bd a803 0c3d
00000080: 1bbf e73d f430 69bd 8b31 213e 59ad d93d
00000090: 9876 fb3d 61ca 173e 6139 6a3d 720e 91bd
000000a0: 5a1d 223e 26f8 0dbe 4758 1d3e fb68 c0bd
000000b0: 1332 cb3d dc74 0fbe a7c0 0bbd 83ac 16be
000000c0: df09 523d aa18 18bd 48fa bc3c 37dd 223e
000000d0: 9392 8cbd c138 dcbd f4b0 0d3b bd99 bcbd
000000e0: 648b 21bd 05c3 4fbd 72e3 2abe 0081 4b3e
000000f0: 7cc8 183e a9f0 35be 6eef 143d 001b 053e
00000100: 80a7 853b b354 213e 1d91 d23c 86a1 343c
00000110: 594d dbbd 0c7b 0f3c f0d3 84bd 1245 9c3d
00000120: 7660 ac3d 8f14 243d 6f8e 40bd 1c3e 3e3d
00000130: 2106 463e 973c c8bd 2fed 90bd 38c9 fabc
00000140: b628 243e f1f3 06be 9815 25be 456a 693d
00000150: 88dd d9bd 06a1 42bd cb9c 083e 09b0 0fbe
00000160: a8e1 f5bd 3718 e4bd 7e1b b13d 372d fc3d
00000170: b827 b4bd 0e3f a3bc cd76 70bc 6ddf e2bc
00000180: 013d 47bd 2b78 9a3d 3dd0 393e 970e 02be
00000190: a3a4 d4bd 038b 00be 2013 0c3e 6788 81bd
000001a0: d33c 183e 1d77 693a bd0b fcbd 25f3 683d
000001b0: 3af4 7fbd 8f58 eb3d 30f9 7ebd 5516 1f3e
000001c0: 09cb 213e 5b46 023e a739 d8bd 1fb1 b1bd
000001d0: 92db 84bd 8892 d3bd 549c 49bd ecac 763c
000001e0: 6870 cdbc d5c0 a73d afe8 1fbd 9abc 91bc
000001f0: 1447 493e 0681 c2bc 985d 32be cd7b dbbb
00000200: b9cf c83d 5f0b f53d d84a 9fbc 89d1 26be
00000210: 816f d03d 8959 7abd 7c37 29bd 4a76 fd3d
00000220: ba13 523d a34a c9bd 101b 82bc f3ca f2bd
00000230: ad5c f3bd 09cc 71bd 2844 7f3d f200 e8bd
00000240: 6a9f 9e3d e2d9 123d ab7b 85bd 1ada 8abd
00000250: 88fd 4c3d a097 543d 8e4e c1bd 37ce 813d
00000260: 69e8 193d 9ceb 213e cabc 51bd 0f67 093e
00000270: 5870 ab3d 696d 25be 5798 b0bd 52ea cf3a
00000280: e68c 2a3e 2e8e bd3d 1efc 80bd e408 2b3d
00000290: ce2d 7dbd e20c 873d c03a 2cbe 38fb 0bbe
000002a0: 8827 0cbd 4b44 21be f020 e33c 6c77 913d
000002b0: 1778 263e 6d97 cbbd ec2b b8bd 2db4 14be
000002c0: 3336 d13c 3528 023e 7283 f13d ac6f a6bc
000002d0: 43e4 36be 8ea9 1abe f6cb 3cbc 9723 a5bd
000002e0: 3428 15bd 1a6a 043d a4be 953d 9100 d0bd
000002f0: 549a 11bd d715 63bb d73c 7ebd 0eee 18be
00000300: 0614 dabd 7a8b 933d 7d5c 303e 3962 203e
00000310: a344 063e da48 03be 5bff a6bc 2d70 80bd
00000320: 4d03 203e 7ecd 68bd 7af8 223c a2c8 2cbe
00000330: ddf9 1d3e 0216 523d c0b1 c1bd 655d a6bd
00000340: 21f9 94bc e9b6 d4bd 82c8 1c3e 1550 1abe
00000350: f3e8 a4bd 7c1e f33d 7398 4e3d 597f b9bd
00000360: bda5 f2bd b2a7 823d baaf b63d f484 333d
00000370: 82e7 adbd 9b3e 14bd edf4 8fbd f501 edbc
00000380: 4772 c4bd fe01 5dbd ed29 143e 7e1e 40bd
00000390: 2e22 cc3d 6a3c f8bd 81b8 263e 122e b1bd
000003a0: de4c febd e820 39bd 2521 ad3c 3843 7abd
000003b0: a439 b1bd 752a 0a3e 76a4 cf3d cca6 623d
000003c0: bfdb 893c c2e4 65bd da3d 12be bae6 c53d
000003d0: 4a78 b33d fef8 e03d dc7d 3b3b bd2b e23d
000003e0: e6a4 bc3d 78d5 dbbc 07eb 893d c6ee 1e3d
000003f0: 88ed e7bc 41a0 2c3e edd6 1bbe efb2 0b3d

arith.constant13 f4 [128, 128]
-0.12501574 0.0038787904 0.006815084 0.06593897 0.09901094 -0.032605 0.14567816 0.15020852
0.025151826 0.008185238 0.033810403 0.052880276 -0.03785614 -0.12669279 0.115220085 0.003651415
0.1174612 0.09733659 0.10568425 0.036853474 -0.011357023 0.08193662 -0.014959442 -0.027918313
0.05094104 0.005915121 0.09571251 -0.1353614 0.11155865 -0.11113169 -0.04509225 -0.05060908
0.042903725 0.08946429 0.113056146 -0.009733674 -0.11521197 0.11940157 -0.040931523 -0.054753534
-0.019816915 -0.15067084 -0.041605618 -0.017692223 0.053816147 -0.0118905455 -0.110009156 -0.031897645
0.08122899 0.13039376 0.07827324 -0.069602646 -0.050891366 -0.015290586 0.109082155 0.07101473
-0.13386905 -0.08029731 0.11891282 -0.030420363 -0.13946342 -0.029630499 0.11400985 0.037481844
-0.112006046 0.049847156 -0.057056308 -0.115506105 -0.02910552 -0.08656496 0.020694058 0.012882021
-0.022971768 -0.06719936 -0.073119976 -0.08813148 -0.040911693 -0.019946171 0.09558814 -0.012839382
0.04652502 -0.101669565 0.1001899 0.1054444 0.0730721 -0.07211082 -0.036030184 -0.105151996
-0.12127706 0.037807506 0.049148772 -0.058121487 -0.125394 -0.072896145 -0.064440824 0.12907833
0.047758635 0.07164245 0.03338837 -0.13908471 0.102977864 -0.082798354 0.08106378 -0.016731512
0.09285833 -0.12216352 0.006156872 0.09765415 0.14844458 -0.12516868 -0.13255142 0.0007470347
-0.08173563 0.10182403 0.082421854 0.032254264 -0.110853955 0.14549768 -0.019378165 -0.09568441
0.1384328 0.1405391 0.11252908 -0.12131491 0.035844445 0.0025197128 -0.008076257 0.008066498
0.112771444 0.06221165 0.038233973 0.14528228 -0.12865266 -0.04653932 -0.08730176 0.10412917
-0.062300727 -0.09522179 0.051244956 0.13905805 0.05025455 0.109839305 -0.14833896 0.10146247
0.04851713 0.11116837 0.08071342 0.15083545 0.08505356 0.04276147 0.020415418 0.042314425
0.037794203 0.018493712 0.06438658 0.04422818 -0.06510141 -0.06267128 -0.14298868 -0.08793657
0.12044822 -0.08545176 0.053924784 -0.025847271 -0.0993941 0.121692345 0.07685193 0.076086774
0.13472225 -0.03900123 0.02604665 -0.029358096 -0.08002241 0.09561859 -0.013856387 -0.072404586
0.13599664 -0.071438104 -0.035238322 0.05007418 -0.096392594 0.07398749 -0.08175026 0.020142514
0.02722089 -0.0044784388 0.02764124 -0.11621232 -0.10188767 -0.080557495 -0.13524315 -0.106918514
0.042488698 -0.050509747 -0.10473486 -0.03301349 -0.13625114 0.05834055 -0.06215593 -0.012508278
-0.053691372 0.116533816 -0.13870507 0.02984406 0.00986911 0.054550275 -0.034222886 0.10697017
0.12577458 0.119400635 0.10896684 0.074674256 -0.02695043 0.10960436 -0.14259593 -0.120567575
-0.012219921 0.039983433 0.1445868 -0.06649479 -0.04525796 0.11377753 0.10382957 0.15255253
-0.011305521 -0.034814134 0.14719827 -0.14689481 0.102602966 -0.082721844 0.049903493 -0.06275346
0.033547293 -0.16080841 -0.109567836 -0.13045253 -0.12930208 0.041378215 0.008343488 0.0027276922
0.08356978 -0.055327624 0.13942875 0.006214995 -0.09769372 -0.066322856 0.049675185 -0.12572263
-0.11709751 -0.092594855 -0.11348308 -0.12794426 0.15790433 0.028746456 -0.035411224 -0.0821949
00000000: 2004 00be 4e33 7e3b 1151 df3b 030b 873d
00000010: 3fc6 ca3d d28c 05bd a82c 153e 43d0 193e
00000020: 340b ce3c 601b 063c c77c 0a3d fd98 583d
00000030: 0a0f 1bbd c1bb 01be 82f8 eb3d 944c 6f3b
00000040: 7f8f f03d 6858 c73d fc70 d83d abf3 163d
00000050: cf12 3abc 63ce a73d 7318 75bc f2b4 e4bc
00000060: 8da7 503d a2d3 c13b ec04 c43d 2e9c 0abe
00000070: dd78 e43d 0399 e3bd a7b2 38bd 774b 4fbd
00000080: d1bb 2f3d 0e39 b73d fb89 e73d fd79 1fbc
00000090: 41f4 ebbd cf88 f43d d0a7 27bd 3e45 60bd
000000a0: 1557 a2bc 7549 1abe a76a 2abd 48ef 90bc
000000b0: 526e 5c3d 90d0 42bc 7b4c e1bd 1ba7 02bd
000000c0: 625b a63d f185 053e b84d a03d d58b 8ebd
000000d0: 7773 50bd 5e85 7abc 7766 df3d 2c70 913d
000000e0: f814 09be eb72 a4bd 9188 f33d 2034 f9bc
000000f0: 80cf 0ebe a9bb f2bc ff7d e93d 9086 193d
00000100: 6d63 e5bd 882c 4c3d e0b3 69bd 778e ecbd
00000110: b36e eebc f848 b1bd 9686 a93c 1d0f 533c
00000120: 4a2f bcbc d19f 89bd edbf 95bd 477e b4bd
00000130: 0593 27bd 2766 a3bc b7c3 c33d 455c 52bc
00000140: 0591 3e3d 2238 d0bd 5d30 cd3d 3cf3 d73d
00000150: d3a6 953d d6ae 93bd 6394 13bd ee59 d7bd
00000160: 1b60 f8bd 0bdc 1a3d 3950 493d cc10 6ebd
00000170: 4967 00be 934a 95bd 8df9 83bd 1c2d 043e
00000180: 8f9e 433d 47b9 923d 3ec2 083d 396c 0ebe
00000190: 0fe6 d23d 2f92 a9bd c404 a63d 8610 89bc
000001a0: 822c be3d de30 fabd 96bf c93b e6fe c73d
000001b0: db01 183e 382c 00be 8fbb 07be a6d4 433a
000001c0: 0365 a7bd 1e89 d03d cacc a83d 0c1d 043d
000001d0: 6607 e3bd 58fd 143e f5be 9ebc 30f6 c3bd
000001e0: 54c1 0d3e 7be9 0f3e a575 e63d f473 f8bd
000001f0: a0d1 123d c421 253b 4752 04bc 5829 043c
00000200: b7f4 e63d a5d1 7e3d 3a9b 1c3d e1c4 143e
00000210: 86bd 03be 04a0 3ebd 44cb b2bd ad41 d53d
00000220: 0c2f 7fbd a403 c3bd 3be6 513d 3c65 0e3e
00000230: b7d7 4d3d 6ef3 e03d 2be6 17be 8ecb cf3d
00000240: e6b9 463d 3eac e33d 144d a53d 9c74 1a3e
00000250: 9030 ae3d a726 2f3d 3c3e a73c e451 2d3d
00000260: 18ce 1a3d 2080 973c 1cdd 833d 9c28 353d
00000270: e353 85bd cd59 80bd a06b 12be 1718 b4bd
00000280: 8ead f63d 5501 afbd 3ce0 5c3d a8bd d3bc
00000290: 228f cbbd d639 f93d 8b64 9d3d 62d3 9b3d
000002a0: a1f4 093e c1bf 1fbd c95f d53c 6480 f0bc
000002b0: cae2 a3bd aed3 c33d e605 63bc db48 94bd
000002c0: b442 0b3e 244e 92bd 0f56 10bd 951a 4d3d
000002d0: 7b69 c5bd c186 973d ae6c a7bd ea01 a53c
000002e0: 58fe de3c debf 92bb e26f e23c ba00 eebd
000002f0: 7caa d0bd 54fb a4bd 2e7d 0abe 18f8 dabd
00000300: a108 2e3d 4fe3 4ebd 3b7f d6bd 2739 07bd
00000310: 6b85 0bbe 80f6 6e3d 3797 7ebd 85ef 4cbc
00000320: 7ceb 5bbd 48a9 ee3d b408 0ebe 887b f43c
00000330: 0cb2 213c 1c70 5f3d 4c2d 0cbd 2d13 db3d
00000340: 0dcb 003e 5288 f43d 022a df3d d1ee 983d
00000350: 26c7 dcbc 4078 e03d ab04 12be 22ec f6bd
00000360: 1036 48bc abc5 233d 900e 143e 6c2e 88bd
00000370: 6960 39bd 3204 e93d 99a4 d43d bb36 1c3e
00000380: cb3a 39bc 4499 0ebd 25bb 163e 986b 16be
00000390: 8121 d23d 126a a9bd 9b67 4c3d e384 80bd
000003a0: e368 093d f6aa 24be 1a65 e0bd 5995 05be
000003b0: c467 04be 347c 293d 20b3 083c 15c3 323b
000003c0: a226 ab3d 389f 62bd 69c6 0e3e 28a7 cb3b
000003d0: a513 c8bd 47d4 87bd 3578 4b3d 6fbd 00be
000003e0: d2d0 efbd 5fa2 bdbd d169 e8bd d203 03be
000003f0: acb1 213e b07d eb3c 5c0b 11bd cd55 a8bd
